…
Test shapes: (3986, 24) (3986,)
Train sequences shape: (18508, 30, 24) (18508,)
X_train_sequences shape: (18508, 30, 24)
X_val_sequences shape: (5508, 30, 24)
X_test_sequences shape: (3899, 30, 24)
WARNING:tensorflow:Layer gru will not use cuDNN kernels since it doesn't meet the criteria. It will use a generic GPU kernel as fallback when running on GPU.
Model: "sequential"
_________________________________________________________________
 Layer (type)                Output Shape              Param #
=================================================================
 gru (GRU)                   (None, 64)                17280

 dropout (Dropout)           (None, 64)                0

 batch_normalization (Batch  (None, 64)                256
 Normalization)

 dense (Dense)               (None, 64)                4160

 dense_1 (Dense)             (None, 2)                 130

=================================================================
Total params: 21826 (85.26 KB)
Trainable params: 21698 (84.76 KB)
Non-trainable params: 128 (512.00 Byte)
_________________________________________________________________
Epoch 1/500
