…
X_test_sequences shape: (3719, 90, 49)
WARNING:tensorflow:Layer gru will not use cuDNN kernels since it doesn't meet the criteria. It will use a generic GPU kernel as fallback when running on GPU.
WARNING:tensorflow:Layer gru_1 will not use cuDNN kernels since it doesn't meet the criteria. It will use a generic GPU kernel as fallback when running on GPU.
Model: "sequential"
_________________________________________________________________
 Layer (type)                Output Shape              Param #
=================================================================
 gru (GRU)                   (None, 90, 128)           68736

 dropout (Dropout)           (None, 90, 128)           0

 batch_normalization (Batch  (None, 90, 128)           512
 Normalization)

 gru_1 (GRU)                 (None, 128)               99072

 dropout_1 (Dropout)         (None, 128)               0

 batch_normalization_1 (Bat  (None, 128)               512
 chNormalization)

 dense (Dense)               (None, 32)                4128

 dense_1 (Dense)             (None, 2)                 66

=================================================================
Total params: 173026 (675.88 KB)
Trainable params: 172514 (673.88 KB)
Non-trainable params: 512 (2.00 KB)
_________________________________________________________________
Epoch 1/500
549/549 - 89s - loss: 7.4363 - accuracy: 0.5205 - precision: 0.5205 - recall: 0.5205 - auc: 0.5265 - val_loss: 3.8402 - val_accuracy: 0.5257 - val_precision: 0.5257 - val_recall: 0.5257 - val_auc: 0.5670 - 89s/epoch - 162ms/step
…
