…
Validation fold: ['p2nodbot' 'p6nodbot' 'p9nodbot' 'p19nodbot' 'p22nodbot']
Test fold: ['p18nodbot' 'p27nodbot' 'p5nodbot']
Train shapes: (18972, 60) (18972,)
Validation shapes: (5653, 60) (5653,)
Test shapes: (3986, 60) (3986,)
Train sequences shape: (18028, 60, 60) (18028,)
X_train_sequences shape: (18028, 60, 60)
X_val_sequences shape: (5358, 60, 60)
X_test_sequences shape: (3809, 60, 60)
Model: "sequential"
_________________________________________________________________
 Layer (type)                Output Shape              Param #
=================================================================
 gru (GRU)                   (None, 60, 256)           244224

 dropout (Dropout)           (None, 60, 256)           0

 batch_normalization (Batch  (None, 60, 256)           1024
 Normalization)

 gru_1 (GRU)                 (None, 256)               394752

 dropout_1 (Dropout)         (None, 256)               0

 batch_normalization_1 (Bat  (None, 256)               1024
 chNormalization)

 dense (Dense)               (None, 128)               32896

 dense_1 (Dense)             (None, 2)                 258

=================================================================
Total params: 674178 (2.57 MB)
Trainable params: 673154 (2.57 MB)
Non-trainable params: 1024 (4.00 KB)
_________________________________________________________________
Epoch 1/500
564/564 - 9s - loss: 3.6951 - accuracy: 0.6498 - precision: 0.6498 - recall: 0.6498 - auc: 0.6995 - val_loss: 3.7841 - val_accuracy: 0.6883 - val_precision: 0.6883 - val_recall: 0.6883 - val_auc: 0.7415 - 9s/epoch - 17ms/step
…
