…
Validation fold: ['p2nodbot' 'p6nodbot' 'p9nodbot' 'p19nodbot' 'p22nodbot']
Test fold: ['p18nodbot' 'p27nodbot' 'p5nodbot']
Train shapes: (18972, 59) (18972,)
Validation shapes: (5653, 59) (5653,)
Test shapes: (3986, 59) (3986,)
Train sequences shape: (18028, 60, 59) (18028,)
X_train_sequences shape: (18028, 60, 59)
X_val_sequences shape: (5358, 60, 59)
X_test_sequences shape: (3809, 60, 59)
Model: "sequential"
_________________________________________________________________
 Layer (type)                Output Shape              Param #
=================================================================
 lstm (LSTM)                 (None, 60, 256)           323584

 dropout (Dropout)           (None, 60, 256)           0

 batch_normalization (Batch  (None, 60, 256)           1024
 Normalization)

 lstm_1 (LSTM)               (None, 256)               525312

 dropout_1 (Dropout)         (None, 256)               0

 batch_normalization_1 (Bat  (None, 256)               1024
 chNormalization)

 dense (Dense)               (None, 32)                8224

 dense_1 (Dense)             (None, 2)                 66

=================================================================
Total params: 859234 (3.28 MB)
Trainable params: 858210 (3.27 MB)
Non-trainable params: 1024 (4.00 KB)
_________________________________________________________________
Epoch 1/500
