…
WARNING:tensorflow:Layer gru_1 will not use cuDNN kernels since it doesn't meet the criteria. It will use a generic GPU kernel as fallback when running on GPU.
WARNING:tensorflow:Layer gru_1 will not use cuDNN kernels since it doesn't meet the criteria. It will use a generic GPU kernel as fallback when running on GPU.
WARNING:tensorflow:Layer gru_1 will not use cuDNN kernels since it doesn't meet the criteria. It will use a generic GPU kernel as fallback when running on GPU.
Model: "sequential"
_________________________________________________________________
 Layer (type)                Output Shape              Param #
=================================================================
 bidirectional (Bidirection  (None, 30, 128)           34560
 al)

 dropout (Dropout)           (None, 30, 128)           0

 batch_normalization (Batch  (None, 30, 128)           512
 Normalization)

 bidirectional_1 (Bidirecti  (None, 128)               74496
 onal)

 dropout_1 (Dropout)         (None, 128)               0

 batch_normalization_1 (Bat  (None, 128)               512
 chNormalization)

 dense (Dense)               (None, 128)               16512

 dense_1 (Dense)             (None, 1)                 129

=================================================================
Total params: 126721 (495.00 KB)
Trainable params: 126209 (493.00 KB)
Non-trainable params: 512 (2.00 KB)
_________________________________________________________________
Epoch 1/500
145/145 - 23s - loss: 9.1229 - accuracy: 0.4948 - precision: 0.5283 - recall: 0.2986 - auc: 0.5009 - val_loss: 8.9425 - val_accuracy: 0.5497 - val_precision: 0.6188 - val_recall: 0.2454 - val_auc: 0.5502 - 23s/epoch - 157ms/step
…
