…
Validation fold: ['p2nodbot' 'p6nodbot' 'p9nodbot' 'p19nodbot' 'p22nodbot']
Test fold: ['p18nodbot' 'p27nodbot' 'p5nodbot']
Train shapes: (18972, 49) (18972,)
Validation shapes: (5653, 49) (5653,)
Test shapes: (3986, 49) (3986,)
Train sequences shape: (18508, 30, 49) (18508,)
X_train_sequences shape: (18508, 30, 49)
X_val_sequences shape: (5508, 30, 49)
X_test_sequences shape: (3899, 30, 49)
Model: "sequential"
_________________________________________________________________
 Layer (type)                Output Shape              Param #
=================================================================
 gru (GRU)                   (None, 30, 64)            22080

 dropout (Dropout)           (None, 30, 64)            0

 batch_normalization (Batch  (None, 30, 64)            256
 Normalization)

 gru_1 (GRU)                 (None, 64)                24960

 dropout_1 (Dropout)         (None, 64)                0

 batch_normalization_1 (Bat  (None, 64)                256
 chNormalization)

 dense (Dense)               (None, 64)                4160

 dense_1 (Dense)             (None, 2)                 130

=================================================================
Total params: 51842 (202.51 KB)
Trainable params: 51586 (201.51 KB)
Non-trainable params: 256 (1.00 KB)
_________________________________________________________________
Epoch 1/500
