…
WARNING:tensorflow:Layer gru_2 will not use cuDNN kernels since it doesn't meet the criteria. It will use a generic GPU kernel as fallback when running on GPU.
WARNING:tensorflow:Layer gru_2 will not use cuDNN kernels since it doesn't meet the criteria. It will use a generic GPU kernel as fallback when running on GPU.
WARNING:tensorflow:Layer gru_2 will not use cuDNN kernels since it doesn't meet the criteria. It will use a generic GPU kernel as fallback when running on GPU.
Model: "sequential"
_________________________________________________________________
 Layer (type)                Output Shape              Param #
=================================================================
 bidirectional (Bidirection  (None, 30, 128)           44160
 al)

 dropout (Dropout)           (None, 30, 128)           0

 batch_normalization (Batch  (None, 30, 128)           512
 Normalization)

 bidirectional_1 (Bidirecti  (None, 30, 128)           74496
 onal)

 dropout_1 (Dropout)         (None, 30, 128)           0

 batch_normalization_1 (Bat  (None, 30, 128)           512
 chNormalization)

 bidirectional_2 (Bidirecti  (None, 128)               74496
 onal)

 dropout_2 (Dropout)         (None, 128)               0

 batch_normalization_2 (Bat  (None, 128)               512
 chNormalization)

 dense (Dense)               (None, 32)                4128

 dense_1 (Dense)             (None, 2)                 66

=================================================================
Total params: 198882 (776.88 KB)
Trainable params: 198114 (773.88 KB)
Non-trainable params: 768 (3.00 KB)
_________________________________________________________________
Epoch 1/500
145/145 - 43s - loss: 5.3596 - accuracy: 0.8017 - precision: 0.8017 - recall: 0.8017 - auc: 0.8773 - val_loss: 2.4204 - val_accuracy: 0.5605 - val_precision: 0.5605 - val_recall: 0.5605 - val_auc: 0.6080 - 43s/epoch - 297ms/step
…
