…
Validation fold: ['p2nodbot' 'p6nodbot' 'p9nodbot' 'p19nodbot' 'p22nodbot']
Test fold: ['p18nodbot' 'p27nodbot' 'p5nodbot']
Train shapes: (18972, 24) (18972,)
Validation shapes: (5653, 24) (5653,)
Test shapes: (3986, 24) (3986,)
Train sequences shape: (18028, 60, 24) (18028,)
X_train_sequences shape: (18028, 60, 24)
X_val_sequences shape: (5358, 60, 24)
X_test_sequences shape: (3809, 60, 24)
Model: "sequential"
_________________________________________________________________
 Layer (type)                Output Shape              Param #
=================================================================
 gru (GRU)                   (None, 64)                17280

 dropout (Dropout)           (None, 64)                0

 batch_normalization (Batch  (None, 64)                256
 Normalization)

 dense (Dense)               (None, 64)                4160

 dense_1 (Dense)             (None, 1)                 65

=================================================================
Total params: 21761 (85.00 KB)
Trainable params: 21633 (84.50 KB)
Non-trainable params: 128 (512.00 Byte)
_________________________________________________________________
Epoch 1/500
564/564 - 9s - loss: 4.0833 - accuracy: 0.6144 - precision: 0.6395 - recall: 0.6428 - auc: 0.6549 - val_loss: 3.3086 - val_accuracy: 0.6366 - val_precision: 0.6522 - val_recall: 0.6191 - val_auc: 0.6904 - 9s/epoch - 16ms/step
…
