…
Validation fold: ['p2nodbot' 'p6nodbot' 'p9nodbot' 'p19nodbot' 'p22nodbot']
Test fold: ['p18nodbot' 'p27nodbot' 'p5nodbot']
Train shapes: (18972, 49) (18972,)
Validation shapes: (5653, 49) (5653,)
Test shapes: (3986, 49) (3986,)
Train sequences shape: (17548, 90, 49) (17548,)
X_train_sequences shape: (17548, 90, 49)
X_val_sequences shape: (5208, 90, 49)
X_test_sequences shape: (3719, 90, 49)
Model: "sequential"
_________________________________________________________________
 Layer (type)                Output Shape              Param #
=================================================================
 bidirectional (Bidirection  (None, 90, 256)           137472
 al)

 dropout (Dropout)           (None, 90, 256)           0

 batch_normalization (Batch  (None, 90, 256)           1024
 Normalization)

 bidirectional_1 (Bidirecti  (None, 256)               296448
 onal)

 dropout_1 (Dropout)         (None, 256)               0

 batch_normalization_1 (Bat  (None, 256)               1024
 chNormalization)

 dense (Dense)               (None, 32)                8224

 dense_1 (Dense)             (None, 2)                 66

=================================================================
Total params: 444258 (1.69 MB)
Trainable params: 443234 (1.69 MB)
Non-trainable params: 1024 (4.00 KB)
_________________________________________________________________
Epoch 1/500
138/138 - 10s - loss: 0.6613 - accuracy: 0.7777 - precision: 0.7777 - recall: 0.7777 - auc: 0.8474 - val_loss: 1.0728 - val_accuracy: 0.6190 - val_precision: 0.6190 - val_recall: 0.6190 - val_auc: 0.6485 - 10s/epoch - 71ms/step
…
