…
Validation fold: ['p2nodbot' 'p6nodbot' 'p9nodbot' 'p19nodbot' 'p22nodbot']
Test fold: ['p18nodbot' 'p27nodbot' 'p5nodbot']
Train shapes: (18972, 24) (18972,)
Validation shapes: (5653, 24) (5653,)
Test shapes: (3986, 24) (3986,)
Train sequences shape: (18028, 60, 24) (18028,)
X_train_sequences shape: (18028, 60, 24)
X_val_sequences shape: (5358, 60, 24)
X_test_sequences shape: (3809, 60, 24)
Model: "sequential"
_________________________________________________________________
 Layer (type)                Output Shape              Param #
=================================================================
 bidirectional (Bidirection  (None, 256)               118272
 al)

 dropout (Dropout)           (None, 256)               0

 batch_normalization (Batch  (None, 256)               1024
 Normalization)

 dense (Dense)               (None, 64)                16448

 dense_1 (Dense)             (None, 2)                 130

=================================================================
Total params: 135874 (530.76 KB)
Trainable params: 135362 (528.76 KB)
Non-trainable params: 512 (2.00 KB)
_________________________________________________________________
Epoch 1/500
