…
WARNING:tensorflow:Layer gru_1 will not use cuDNN kernels since it doesn't meet the criteria. It will use a generic GPU kernel as fallback when running on GPU.
WARNING:tensorflow:Layer gru_1 will not use cuDNN kernels since it doesn't meet the criteria. It will use a generic GPU kernel as fallback when running on GPU.
WARNING:tensorflow:Layer gru_1 will not use cuDNN kernels since it doesn't meet the criteria. It will use a generic GPU kernel as fallback when running on GPU.
Model: "sequential"
_________________________________________________________________
 Layer (type)                Output Shape              Param #
=================================================================
 bidirectional (Bidirection  (None, 30, 128)           44160
 al)

 dropout (Dropout)           (None, 30, 128)           0

 batch_normalization (Batch  (None, 30, 128)           512
 Normalization)

 bidirectional_1 (Bidirecti  (None, 128)               74496
 onal)

 dropout_1 (Dropout)         (None, 128)               0

 batch_normalization_1 (Bat  (None, 128)               512
 chNormalization)

 dense (Dense)               (None, 128)               16512

 dense_1 (Dense)             (None, 2)                 258

=================================================================
Total params: 136450 (533.01 KB)
Trainable params: 135938 (531.01 KB)
Non-trainable params: 512 (2.00 KB)
_________________________________________________________________
Epoch 1/500
