…
Validation fold: ['p2nodbot' 'p6nodbot' 'p9nodbot' 'p19nodbot' 'p22nodbot']
Test fold: ['p18nodbot' 'p27nodbot' 'p5nodbot']
Train shapes: (18972, 49) (18972,)
Validation shapes: (5653, 49) (5653,)
Test shapes: (3986, 49) (3986,)
Train sequences shape: (18508, 30, 49) (18508,)
X_train_sequences shape: (18508, 30, 49)
X_val_sequences shape: (5508, 30, 49)
X_test_sequences shape: (3899, 30, 49)
Model: "sequential"
_________________________________________________________________
 Layer (type)                Output Shape              Param #
=================================================================
 bidirectional (Bidirection  (None, 512)               471552
 al)

 dropout (Dropout)           (None, 512)               0

 batch_normalization (Batch  (None, 512)               2048
 Normalization)

 dense (Dense)               (None, 32)                16416

 dense_1 (Dense)             (None, 1)                 33

=================================================================
Total params: 490049 (1.87 MB)
Trainable params: 489025 (1.87 MB)
Non-trainable params: 1024 (4.00 KB)
_________________________________________________________________
Epoch 1/500
145/145 - 8s - loss: 7.9844 - accuracy: 0.7537 - precision: 0.7494 - recall: 0.7936 - auc: 0.8232 - val_loss: 1.1273 - val_accuracy: 0.6374 - val_precision: 0.6261 - val_recall: 0.6717 - val_auc: 0.6997 - 8s/epoch - 58ms/step
…
