…
Test shapes: (3986, 49) (3986,)
Train sequences shape: (18508, 30, 49) (18508,)
X_train_sequences shape: (18508, 30, 49)
X_val_sequences shape: (5508, 30, 49)
X_test_sequences shape: (3899, 30, 49)
WARNING:tensorflow:Layer gru will not use cuDNN kernels since it doesn't meet the criteria. It will use a generic GPU kernel as fallback when running on GPU.
Model: "sequential"
_________________________________________________________________
 Layer (type)                Output Shape              Param #
=================================================================
 gru (GRU)                   (None, 256)               235776

 dropout (Dropout)           (None, 256)               0

 batch_normalization (Batch  (None, 256)               1024
 Normalization)

 dense (Dense)               (None, 64)                16448

 dense_1 (Dense)             (None, 2)                 130

=================================================================
Total params: 253378 (989.76 KB)
Trainable params: 252866 (987.76 KB)
Non-trainable params: 512 (2.00 KB)
_________________________________________________________________
Epoch 1/500
145/145 - 14s - loss: 3.4232 - accuracy: 0.5168 - precision: 0.5168 - recall: 0.5168 - auc: 0.5203 - val_loss: 0.8807 - val_accuracy: 0.5029 - val_precision: 0.5029 - val_recall: 0.5029 - val_auc: 0.5029 - 14s/epoch - 98ms/step
…
