…
Validation shapes: (5653, 49) (5653,)
Test shapes: (3986, 49) (3986,)
Train sequences shape: (17548, 90, 49) (17548,)
X_train_sequences shape: (17548, 90, 49)
X_val_sequences shape: (5208, 90, 49)
X_test_sequences shape: (3719, 90, 49)
Num classes:  2
Unique labels in y_train: [0 1 2 3 4 5]
Unique labels in y_val: [0 1 2 3]
Unique labels in y_test: [0 1 2 3]
Model output classes: 2
Model: "sequential"
_________________________________________________________________
 Layer (type)                Output Shape              Param #
=================================================================
 gru (GRU)                   (None, 256)               235776

 dropout (Dropout)           (None, 256)               0

 batch_normalization (Batch  (None, 256)               1024
 Normalization)

 dense (Dense)               (None, 32)                8224

 dense_1 (Dense)             (None, 2)                 66

=================================================================
Total params: 245090 (957.38 KB)
Trainable params: 244578 (955.38 KB)
Non-trainable params: 512 (2.00 KB)
_________________________________________________________________
Epoch 1/500
