…
Validation fold: ['p2nodbot' 'p6nodbot' 'p9nodbot' 'p19nodbot' 'p22nodbot']
Test fold: ['p18nodbot' 'p27nodbot' 'p5nodbot']
Train shapes: (18972, 49) (18972,)
Validation shapes: (5653, 49) (5653,)
Test shapes: (3986, 49) (3986,)
Train sequences shape: (18028, 60, 49) (18028,)
X_train_sequences shape: (18028, 60, 49)
X_val_sequences shape: (5358, 60, 49)
X_test_sequences shape: (3809, 60, 49)
Model: "sequential"
_________________________________________________________________
 Layer (type)                Output Shape              Param #
=================================================================
 gru (GRU)                   (None, 60, 128)           68736

 dropout (Dropout)           (None, 60, 128)           0

 batch_normalization (Batch  (None, 60, 128)           512
 Normalization)

 gru_1 (GRU)                 (None, 128)               99072

 dropout_1 (Dropout)         (None, 128)               0

 batch_normalization_1 (Bat  (None, 128)               512
 chNormalization)

 dense (Dense)               (None, 32)                4128

 dense_1 (Dense)             (None, 2)                 66

=================================================================
Total params: 173026 (675.88 KB)
Trainable params: 172514 (673.88 KB)
Non-trainable params: 512 (2.00 KB)
_________________________________________________________________
Epoch 1/500
282/282 - 12s - loss: 1.7177 - accuracy: 0.4916 - precision: 0.4916 - recall: 0.4916 - auc: 0.4907 - val_loss: 1.6225 - val_accuracy: 0.4983 - val_precision: 0.4983 - val_recall: 0.4983 - val_auc: 0.4978 - 12s/epoch - 41ms/step
…
