…
Validation fold: ['p2nodbot' 'p6nodbot' 'p9nodbot' 'p19nodbot' 'p22nodbot']
Test fold: ['p18nodbot' 'p27nodbot' 'p5nodbot']
Train shapes: (18972, 24) (18972,)
Validation shapes: (5653, 24) (5653,)
Test shapes: (3986, 24) (3986,)
Train sequences shape: (18508, 30, 24) (18508,)
X_train_sequences shape: (18508, 30, 24)
X_val_sequences shape: (5508, 30, 24)
X_test_sequences shape: (3899, 30, 24)
Model: "sequential"
_________________________________________________________________
 Layer (type)                Output Shape              Param #
=================================================================
 bidirectional (Bidirection  (None, 30, 512)           433152
 al)

 dropout (Dropout)           (None, 30, 512)           0

 batch_normalization (Batch  (None, 30, 512)           2048
 Normalization)

 bidirectional_1 (Bidirecti  (None, 512)               1182720
 onal)

 dropout_1 (Dropout)         (None, 512)               0

 batch_normalization_1 (Bat  (None, 512)               2048
 chNormalization)

 dense (Dense)               (None, 128)               65664

 dense_1 (Dense)             (None, 2)                 258

=================================================================
Total params: 1685890 (6.43 MB)
Trainable params: 1683842 (6.42 MB)
Non-trainable params: 2048 (8.00 KB)
_________________________________________________________________
Epoch 1/500
