…
X_test_sequences shape: (3899, 30, 24)
WARNING:tensorflow:Layer lstm will not use cuDNN kernels since it doesn't meet the criteria. It will use a generic GPU kernel as fallback when running on GPU.
WARNING:tensorflow:Layer lstm_1 will not use cuDNN kernels since it doesn't meet the criteria. It will use a generic GPU kernel as fallback when running on GPU.
Model: "sequential"
_________________________________________________________________
 Layer (type)                Output Shape              Param #
=================================================================
 lstm (LSTM)                 (None, 30, 64)            22784

 dropout (Dropout)           (None, 30, 64)            0

 batch_normalization (Batch  (None, 30, 64)            256
 Normalization)

 lstm_1 (LSTM)               (None, 64)                33024

 dropout_1 (Dropout)         (None, 64)                0

 batch_normalization_1 (Bat  (None, 64)                256
 chNormalization)

 dense (Dense)               (None, 128)               8320

 dense_1 (Dense)             (None, 2)                 258

=================================================================
Total params: 64898 (253.51 KB)
Trainable params: 64642 (252.51 KB)
Non-trainable params: 256 (1.00 KB)
_________________________________________________________________
Epoch 1/500
579/579 - 57s - loss: 5.2115 - accuracy: 0.5187 - precision: 0.5187 - recall: 0.5187 - auc: 0.5176 - val_loss: 5.1697 - val_accuracy: 0.4971 - val_precision: 0.4971 - val_recall: 0.4971 - val_auc: 0.4951 - 57s/epoch - 98ms/step
…
