…
WARNING:tensorflow:Layer gru will not use cuDNN kernels since it doesn't meet the criteria. It will use a generic GPU kernel as fallback when running on GPU.
WARNING:tensorflow:Layer gru_1 will not use cuDNN kernels since it doesn't meet the criteria. It will use a generic GPU kernel as fallback when running on GPU.
WARNING:tensorflow:Layer gru_2 will not use cuDNN kernels since it doesn't meet the criteria. It will use a generic GPU kernel as fallback when running on GPU.
Model: "sequential"
_________________________________________________________________
 Layer (type)                Output Shape              Param #
=================================================================
 gru (GRU)                   (None, 60, 256)           217344

 dropout (Dropout)           (None, 60, 256)           0

 batch_normalization (Batch  (None, 60, 256)           1024
 Normalization)

 gru_1 (GRU)                 (None, 60, 256)           394752

 dropout_1 (Dropout)         (None, 60, 256)           0

 batch_normalization_1 (Bat  (None, 60, 256)           1024
 chNormalization)

 gru_2 (GRU)                 (None, 256)               394752

 dropout_2 (Dropout)         (None, 256)               0

 batch_normalization_2 (Bat  (None, 256)               1024
 chNormalization)

 dense (Dense)               (None, 64)                16448

 dense_1 (Dense)             (None, 2)                 130

=================================================================
Total params: 1026498 (3.92 MB)
Trainable params: 1024962 (3.91 MB)
Non-trainable params: 1536 (6.00 KB)
_________________________________________________________________
Epoch 1/500
564/564 - 99s - loss: 4.1314 - accuracy: 0.5163 - precision: 0.5163 - recall: 0.5163 - auc: 0.5126 - val_loss: 3.1252 - val_accuracy: 0.5110 - val_precision: 0.5110 - val_recall: 0.5110 - val_auc: 0.5110 - 99s/epoch - 176ms/step
…
