…
WARNING:tensorflow:Layer lstm_1 will not use cuDNN kernels since it doesn't meet the criteria. It will use a generic GPU kernel as fallback when running on GPU.
WARNING:tensorflow:Layer lstm_1 will not use cuDNN kernels since it doesn't meet the criteria. It will use a generic GPU kernel as fallback when running on GPU.
WARNING:tensorflow:Layer lstm_1 will not use cuDNN kernels since it doesn't meet the criteria. It will use a generic GPU kernel as fallback when running on GPU.
Model: "sequential"
_________________________________________________________________
 Layer (type)                Output Shape              Param #
=================================================================
 bidirectional (Bidirection  (None, 30, 256)           218112
 al)

 dropout (Dropout)           (None, 30, 256)           0

 batch_normalization (Batch  (None, 30, 256)           1024
 Normalization)

 bidirectional_1 (Bidirecti  (None, 256)               394240
 onal)

 dropout_1 (Dropout)         (None, 256)               0

 batch_normalization_1 (Bat  (None, 256)               1024
 chNormalization)

 dense (Dense)               (None, 64)                16448

 dense_1 (Dense)             (None, 2)                 130

=================================================================
Total params: 630978 (2.41 MB)
Trainable params: 629954 (2.40 MB)
Non-trainable params: 1024 (4.00 KB)
_________________________________________________________________
Epoch 1/500
579/579 - 51s - loss: 7.2592 - accuracy: 0.5258 - precision: 0.5258 - recall: 0.5258 - auc: 0.5424 - val_loss: nan - val_accuracy: 0.5029 - val_precision: 0.0000e+00 - val_recall: 0.0000e+00 - val_auc: 0.5000 - 51s/epoch - 88ms/step
…
