…
Validation fold: ['p2nodbot' 'p6nodbot' 'p9nodbot' 'p19nodbot' 'p22nodbot']
Test fold: ['p18nodbot' 'p27nodbot' 'p5nodbot']
Train shapes: (18972, 35) (18972,)
Validation shapes: (5653, 35) (5653,)
Test shapes: (3986, 35) (3986,)
Train sequences shape: (17548, 90, 35) (17548,)
X_train_sequences shape: (17548, 90, 35)
X_val_sequences shape: (5208, 90, 35)
X_test_sequences shape: (3719, 90, 35)
Model: "sequential"
_________________________________________________________________
 Layer (type)                Output Shape              Param #
=================================================================
 bidirectional (Bidirection  (None, 90, 512)           450048
 al)

 dropout (Dropout)           (None, 90, 512)           0

 batch_normalization (Batch  (None, 90, 512)           2048
 Normalization)

 bidirectional_1 (Bidirecti  (None, 90, 512)           1182720
 onal)

 dropout_1 (Dropout)         (None, 90, 512)           0

 batch_normalization_1 (Bat  (None, 90, 512)           2048
 chNormalization)

 bidirectional_2 (Bidirecti  (None, 512)               1182720
 onal)

 dropout_2 (Dropout)         (None, 512)               0

 batch_normalization_2 (Bat  (None, 512)               2048
 chNormalization)

 dense (Dense)               (None, 128)               65664

 dense_1 (Dense)             (None, 2)                 258

=================================================================
Total params: 2887554 (11.02 MB)
Trainable params: 2884482 (11.00 MB)
Non-trainable params: 3072 (12.00 KB)
_________________________________________________________________
Epoch 1/500
549/549 - 34s - loss: 288.7753 - accuracy: 0.6310 - precision: 0.6310 - recall: 0.6310 - auc: 0.6861 - val_loss: 269.2578 - val_accuracy: 0.6542 - val_precision: 0.6542 - val_recall: 0.6542 - val_auc: 0.7214 - 34s/epoch - 63ms/step
…
