…
WARNING:tensorflow:Layer lstm_1 will not use cuDNN kernels since it doesn't meet the criteria. It will use a generic GPU kernel as fallback when running on GPU.
WARNING:tensorflow:Layer lstm_1 will not use cuDNN kernels since it doesn't meet the criteria. It will use a generic GPU kernel as fallback when running on GPU.
WARNING:tensorflow:Layer lstm_1 will not use cuDNN kernels since it doesn't meet the criteria. It will use a generic GPU kernel as fallback when running on GPU.
Model: "sequential"
_________________________________________________________________
 Layer (type)                Output Shape              Param #
=================================================================
 bidirectional (Bidirection  (None, 30, 512)           626688
 al)

 dropout (Dropout)           (None, 30, 512)           0

 batch_normalization (Batch  (None, 30, 512)           2048
 Normalization)

 bidirectional_1 (Bidirecti  (None, 512)               1574912
 onal)

 dropout_1 (Dropout)         (None, 512)               0

 batch_normalization_1 (Bat  (None, 512)               2048
 chNormalization)

 dense (Dense)               (None, 32)                16416

 dense_1 (Dense)             (None, 2)                 66

=================================================================
Total params: 2222178 (8.48 MB)
Trainable params: 2220130 (8.47 MB)
Non-trainable params: 2048 (8.00 KB)
_________________________________________________________________
Epoch 1/500
579/579 - 56s - loss: 34.9650 - accuracy: 0.4878 - precision: 0.4878 - recall: 0.4878 - auc: 0.4872 - val_loss: 29.3133 - val_accuracy: 0.5029 - val_precision: 0.5029 - val_recall: 0.5029 - val_auc: 0.5027 - 56s/epoch - 96ms/step
…
