…
Validation fold: ['p2nodbot' 'p6nodbot' 'p9nodbot' 'p19nodbot' 'p22nodbot']
Test fold: ['p18nodbot' 'p27nodbot' 'p5nodbot']
Train shapes: (18972, 49) (18972,)
Validation shapes: (5653, 49) (5653,)
Test shapes: (3986, 49) (3986,)
Train sequences shape: (18028, 60, 49) (18028,)
X_train_sequences shape: (18028, 60, 49)
X_val_sequences shape: (5358, 60, 49)
X_test_sequences shape: (3809, 60, 49)
Model: "sequential"
_________________________________________________________________
 Layer (type)                Output Shape              Param #
=================================================================
 bidirectional (Bidirection  (None, 60, 512)           471552
 al)

 dropout (Dropout)           (None, 60, 512)           0

 batch_normalization (Batch  (None, 60, 512)           2048
 Normalization)

 bidirectional_1 (Bidirecti  (None, 512)               1182720
 onal)

 dropout_1 (Dropout)         (None, 512)               0

 batch_normalization_1 (Bat  (None, 512)               2048
 chNormalization)

 dense (Dense)               (None, 64)                32832

 dense_1 (Dense)             (None, 2)                 130

=================================================================
Total params: 1691330 (6.45 MB)
Trainable params: 1689282 (6.44 MB)
Non-trainable params: 2048 (8.00 KB)
_________________________________________________________________
Epoch 1/500
