…
Validation shapes: (5653, 49) (5653,)
Test shapes: (3986, 49) (3986,)
Train sequences shape: (18028, 60, 49) (18028,)
X_train_sequences shape: (18028, 60, 49)
X_val_sequences shape: (5358, 60, 49)
X_test_sequences shape: (3809, 60, 49)
Num classes:  2
Unique labels in y_train: [0 1 2 3 4 5]
Unique labels in y_val: [0 1 2 3]
Unique labels in y_test: [0 1 2 3]
Model: "sequential"
_________________________________________________________________
 Layer (type)                Output Shape              Param #
=================================================================
 bidirectional (Bidirection  (None, 60, 256)           137472
 al)

 dropout (Dropout)           (None, 60, 256)           0

 batch_normalization (Batch  (None, 60, 256)           1024
 Normalization)

 bidirectional_1 (Bidirecti  (None, 256)               296448
 onal)

 dropout_1 (Dropout)         (None, 256)               0

 batch_normalization_1 (Bat  (None, 256)               1024
 chNormalization)

 dense (Dense)               (None, 32)                8224

 dense_1 (Dense)             (None, 2)                 66

=================================================================
Total params: 444258 (1.69 MB)
Trainable params: 443234 (1.69 MB)
Non-trainable params: 1024 (4.00 KB)
_________________________________________________________________
Epoch 1/500
