…
Validation shapes: (5653, 7) (5653,)
Test shapes: (3986, 7) (3986,)
Train sequences shape: (18028, 60, 7) (18028,)
X_train_sequences shape: (18028, 60, 7)
X_val_sequences shape: (5358, 60, 7)
X_test_sequences shape: (3809, 60, 7)
WARNING:tensorflow:Layer gru will not use cuDNN kernels since it doesn't meet the criteria. It will use a generic GPU kernel as fallback when running on GPU.
Model: "sequential"
_________________________________________________________________
 Layer (type)                Output Shape              Param #
=================================================================
 gru (GRU)                   (None, 256)               203520

 dropout (Dropout)           (None, 256)               0

 batch_normalization (Batch  (None, 256)               1024
 Normalization)

 dense (Dense)               (None, 128)               32896

 dense_1 (Dense)             (None, 2)                 258

=================================================================
Total params: 237698 (928.51 KB)
Trainable params: 237186 (926.51 KB)
Non-trainable params: 512 (2.00 KB)
_________________________________________________________________
Epoch 1/500
141/141 - 9s - loss: 0.7273 - accuracy: 0.5773 - precision: 0.5773 - recall: 0.5773 - auc: 0.6134 - val_loss: 0.6737 - val_accuracy: 0.6312 - val_precision: 0.6312 - val_recall: 0.6312 - val_auc: 0.6766 - 9s/epoch - 62ms/step
…
