…
WARNING:tensorflow:Layer lstm_1 will not use cuDNN kernels since it doesn't meet the criteria. It will use a generic GPU kernel as fallback when running on GPU.
WARNING:tensorflow:Layer lstm_1 will not use cuDNN kernels since it doesn't meet the criteria. It will use a generic GPU kernel as fallback when running on GPU.
WARNING:tensorflow:Layer lstm_1 will not use cuDNN kernels since it doesn't meet the criteria. It will use a generic GPU kernel as fallback when running on GPU.
Model: "sequential"
_________________________________________________________________
 Layer (type)                Output Shape              Param #
=================================================================
 bidirectional (Bidirection  (None, 90, 128)           58368
 al)

 dropout (Dropout)           (None, 90, 128)           0

 batch_normalization (Batch  (None, 90, 128)           512
 Normalization)

 bidirectional_1 (Bidirecti  (None, 128)               98816
 onal)

 dropout_1 (Dropout)         (None, 128)               0

 batch_normalization_1 (Bat  (None, 128)               512
 chNormalization)

 dense (Dense)               (None, 128)               16512

 dense_1 (Dense)             (None, 1)                 129

=================================================================
Total params: 174849 (683.00 KB)
Trainable params: 174337 (681.00 KB)
Non-trainable params: 512 (2.00 KB)
_________________________________________________________________
Epoch 1/500
549/549 - 135s - loss: 1.9990 - accuracy: 0.6125 - precision: 0.6522 - recall: 0.6347 - auc: 0.6459 - val_loss: nan - val_accuracy: 0.4743 - val_precision: 0.0000e+00 - val_recall: 0.0000e+00 - val_auc: 0.5000 - 135s/epoch - 246ms/step
…
