…
Validation fold: ['p2nodbot' 'p6nodbot' 'p9nodbot' 'p19nodbot' 'p22nodbot']
Test fold: ['p18nodbot' 'p27nodbot' 'p5nodbot']
Train shapes: (18972, 49) (18972,)
Validation shapes: (5653, 49) (5653,)
Test shapes: (3986, 49) (3986,)
Train sequences shape: (18028, 60, 49) (18028,)
X_train_sequences shape: (18028, 60, 49)
X_val_sequences shape: (5358, 60, 49)
X_test_sequences shape: (3809, 60, 49)
Model: "sequential"
_________________________________________________________________
 Layer (type)                Output Shape              Param #
=================================================================
 gru (GRU)                   (None, 60, 128)           68736

 dropout (Dropout)           (None, 60, 128)           0

 batch_normalization (Batch  (None, 60, 128)           512
 Normalization)

 gru_1 (GRU)                 (None, 60, 128)           99072

 dropout_1 (Dropout)         (None, 60, 128)           0

 batch_normalization_1 (Bat  (None, 60, 128)           512
 chNormalization)

 gru_2 (GRU)                 (None, 128)               99072

 dropout_2 (Dropout)         (None, 128)               0

 batch_normalization_2 (Bat  (None, 128)               512
 chNormalization)

 dense (Dense)               (None, 128)               16512

 dense_1 (Dense)             (None, 2)                 258

=================================================================
Total params: 285186 (1.09 MB)
Trainable params: 284418 (1.08 MB)
Non-trainable params: 768 (3.00 KB)
_________________________________________________________________
Epoch 1/500
564/564 - 12s - loss: 37.2277 - accuracy: 0.5401 - precision: 0.5401 - recall: 0.5401 - auc: 0.5586 - val_loss: 35.8470 - val_accuracy: 0.5638 - val_precision: 0.5638 - val_recall: 0.5638 - val_auc: 0.5911 - 12s/epoch - 21ms/step
…
