…
Validation shapes: (5653, 49) (5653,)
Test shapes: (3986, 49) (3986,)
Train sequences shape: (18028, 60, 49) (18028,)
X_train_sequences shape: (18028, 60, 49)
X_val_sequences shape: (5358, 60, 49)
X_test_sequences shape: (3809, 60, 49)
Num classes:  2
Unique labels in y_train: [0 1 2 3 4 5]
Unique labels in y_val: [0 1 2 3]
Unique labels in y_test: [0 1 2 3]
Model output classes: 2
Model: "sequential"
_________________________________________________________________
 Layer (type)                Output Shape              Param #
=================================================================
 gru (GRU)                   (None, 60, 64)            22080

 dropout (Dropout)           (None, 60, 64)            0

 batch_normalization (Batch  (None, 60, 64)            256
 Normalization)

 gru_1 (GRU)                 (None, 60, 64)            24960

 dropout_1 (Dropout)         (None, 60, 64)            0

 batch_normalization_1 (Bat  (None, 60, 64)            256
 chNormalization)

 gru_2 (GRU)                 (None, 64)                24960

 dropout_2 (Dropout)         (None, 64)                0

 batch_normalization_2 (Bat  (None, 64)                256
 chNormalization)

 dense (Dense)               (None, 64)                4160

 dense_1 (Dense)             (None, 2)                 130

=================================================================
Total params: 77058 (301.01 KB)
Trainable params: 76674 (299.51 KB)
Non-trainable params: 384 (1.50 KB)
_________________________________________________________________
Epoch 1/500
