…
Validation fold: ['p2nodbot' 'p6nodbot' 'p9nodbot' 'p19nodbot' 'p22nodbot']
Test fold: ['p18nodbot' 'p27nodbot' 'p5nodbot']
Train shapes: (18972, 59) (18972,)
Validation shapes: (5653, 59) (5653,)
Test shapes: (3986, 59) (3986,)
Train sequences shape: (18028, 60, 59) (18028,)
X_train_sequences shape: (18028, 60, 59)
X_val_sequences shape: (5358, 60, 59)
X_test_sequences shape: (3809, 60, 59)
Model: "sequential"
_________________________________________________________________
 Layer (type)                Output Shape              Param #
=================================================================
 gru (GRU)                   (None, 64)                24000

 dropout (Dropout)           (None, 64)                0

 batch_normalization (Batch  (None, 64)                256
 Normalization)

 dense (Dense)               (None, 128)               8320

 dense_1 (Dense)             (None, 2)                 258

=================================================================
Total params: 32834 (128.26 KB)
Trainable params: 32706 (127.76 KB)
Non-trainable params: 128 (512.00 Byte)
_________________________________________________________________
Epoch 1/500
564/564 - 8s - loss: 9.5471 - accuracy: 0.4525 - precision: 0.4525 - recall: 0.4525 - auc: 0.4294 - val_loss: 9.4668 - val_accuracy: 0.4556 - val_precision: 0.4556 - val_recall: 0.4556 - val_auc: 0.4353 - 8s/epoch - 15ms/step
…
