…
Validation fold: ['p2nodbot' 'p6nodbot' 'p9nodbot' 'p19nodbot' 'p22nodbot']
Test fold: ['p18nodbot' 'p27nodbot' 'p5nodbot']
Train shapes: (18972, 49) (18972,)
Validation shapes: (5653, 49) (5653,)
Test shapes: (3986, 49) (3986,)
Train sequences shape: (18508, 30, 49) (18508,)
X_train_sequences shape: (18508, 30, 49)
X_val_sequences shape: (5508, 30, 49)
X_test_sequences shape: (3899, 30, 49)
Model: "sequential"
_________________________________________________________________
 Layer (type)                Output Shape              Param #
=================================================================
 lstm (LSTM)                 (None, 64)                29184

 dropout (Dropout)           (None, 64)                0

 batch_normalization (Batch  (None, 64)                256
 Normalization)

 dense (Dense)               (None, 64)                4160

 dense_1 (Dense)             (None, 2)                 130

=================================================================
Total params: 33730 (131.76 KB)
Trainable params: 33602 (131.26 KB)
Non-trainable params: 128 (512.00 Byte)
_________________________________________________________________
Epoch 1/500
579/579 - 6s - loss: 1.4058 - accuracy: 0.6862 - precision: 0.6862 - recall: 0.6862 - auc: 0.7354 - val_loss: 1.5551 - val_accuracy: 0.6302 - val_precision: 0.6302 - val_recall: 0.6302 - val_auc: 0.6523 - 6s/epoch - 10ms/step
…
