…
WARNING:tensorflow:Layer gru_2 will not use cuDNN kernels since it doesn't meet the criteria. It will use a generic GPU kernel as fallback when running on GPU.
WARNING:tensorflow:Layer gru_2 will not use cuDNN kernels since it doesn't meet the criteria. It will use a generic GPU kernel as fallback when running on GPU.
WARNING:tensorflow:Layer gru_2 will not use cuDNN kernels since it doesn't meet the criteria. It will use a generic GPU kernel as fallback when running on GPU.
Model: "sequential"
_________________________________________________________________
 Layer (type)                Output Shape              Param #
=================================================================
 bidirectional (Bidirection  (None, 60, 512)           471552
 al)

 dropout (Dropout)           (None, 60, 512)           0

 batch_normalization (Batch  (None, 60, 512)           2048
 Normalization)

 bidirectional_1 (Bidirecti  (None, 60, 512)           1182720
 onal)

 dropout_1 (Dropout)         (None, 60, 512)           0

 batch_normalization_1 (Bat  (None, 60, 512)           2048
 chNormalization)

 bidirectional_2 (Bidirecti  (None, 512)               1182720
 onal)

 dropout_2 (Dropout)         (None, 512)               0

 batch_normalization_2 (Bat  (None, 512)               2048
 chNormalization)

 dense (Dense)               (None, 64)                32832

 dense_1 (Dense)             (None, 2)                 130

=================================================================
Total params: 2876098 (10.97 MB)
Trainable params: 2873026 (10.96 MB)
Non-trainable params: 3072 (12.00 KB)
_________________________________________________________________
Epoch 1/500
564/564 - 244s - loss: 14.0647 - accuracy: 0.5329 - precision: 0.5329 - recall: 0.5329 - auc: 0.5521 - val_loss: 13.2680 - val_accuracy: 0.6292 - val_precision: 0.6292 - val_recall: 0.6292 - val_auc: 0.6902 - 244s/epoch - 432ms/step
…
