…
WARNING:tensorflow:Layer lstm_2 will not use cuDNN kernels since it doesn't meet the criteria. It will use a generic GPU kernel as fallback when running on GPU.
WARNING:tensorflow:Layer lstm_2 will not use cuDNN kernels since it doesn't meet the criteria. It will use a generic GPU kernel as fallback when running on GPU.
WARNING:tensorflow:Layer lstm_2 will not use cuDNN kernels since it doesn't meet the criteria. It will use a generic GPU kernel as fallback when running on GPU.
Model: "sequential"
_________________________________________________________________
 Layer (type)                Output Shape              Param #
=================================================================
 bidirectional (Bidirection  (None, 90, 256)           182272
 al)

 dropout (Dropout)           (None, 90, 256)           0

 batch_normalization (Batch  (None, 90, 256)           1024
 Normalization)

 bidirectional_1 (Bidirecti  (None, 90, 256)           394240
 onal)

 dropout_1 (Dropout)         (None, 90, 256)           0

 batch_normalization_1 (Bat  (None, 90, 256)           1024
 chNormalization)

 bidirectional_2 (Bidirecti  (None, 256)               394240
 onal)

 dropout_2 (Dropout)         (None, 256)               0

 batch_normalization_2 (Bat  (None, 256)               1024
 chNormalization)

 dense (Dense)               (None, 64)                16448

 dense_1 (Dense)             (None, 1)                 65

=================================================================
Total params: 990337 (3.78 MB)
Trainable params: 988801 (3.77 MB)
Non-trainable params: 1536 (6.00 KB)
_________________________________________________________________
Epoch 1/500
275/275 - 150s - loss: 106.2150 - accuracy: 0.5392 - precision: 0.5699 - recall: 0.6643 - auc: 0.5456 - val_loss: 66.8718 - val_accuracy: 0.5006 - val_precision: 0.8549 - val_recall: 0.0603 - val_auc: 0.7452 - 150s/epoch - 545ms/step
…
