…
Validation fold: ['p2nodbot' 'p6nodbot' 'p9nodbot' 'p19nodbot' 'p22nodbot']
Test fold: ['p18nodbot' 'p27nodbot' 'p5nodbot']
Train shapes: (18972, 25) (18972,)
Validation shapes: (5653, 25) (5653,)
Test shapes: (3986, 25) (3986,)
Train sequences shape: (18508, 30, 25) (18508,)
X_train_sequences shape: (18508, 30, 25)
X_val_sequences shape: (5508, 30, 25)
X_test_sequences shape: (3899, 30, 25)
Model: "sequential"
_________________________________________________________________
 Layer (type)                Output Shape              Param #
=================================================================
 lstm (LSTM)                 (None, 30, 128)           78848

 dropout (Dropout)           (None, 30, 128)           0

 batch_normalization (Batch  (None, 30, 128)           512
 Normalization)

 lstm_1 (LSTM)               (None, 30, 128)           131584

 dropout_1 (Dropout)         (None, 30, 128)           0

 batch_normalization_1 (Bat  (None, 30, 128)           512
 chNormalization)

 lstm_2 (LSTM)               (None, 128)               131584

 dropout_2 (Dropout)         (None, 128)               0

 batch_normalization_2 (Bat  (None, 128)               512
 chNormalization)

 dense (Dense)               (None, 128)               16512

 dense_1 (Dense)             (None, 2)                 258

=================================================================
Total params: 360322 (1.37 MB)
Trainable params: 359554 (1.37 MB)
Non-trainable params: 768 (3.00 KB)
_________________________________________________________________
Epoch 1/500
145/145 - 8s - loss: 0.9371 - accuracy: 0.5366 - precision: 0.5366 - recall: 0.5366 - auc: 0.5605 - val_loss: 0.8517 - val_accuracy: 0.5646 - val_precision: 0.5646 - val_recall: 0.5646 - val_auc: 0.5989 - 8s/epoch - 58ms/step
…
