…
Validation shapes: (5653, 49) (5653,)
Test shapes: (3986, 49) (3986,)
Train sequences shape: (18508, 30, 49) (18508,)
X_train_sequences shape: (18508, 30, 49)
X_val_sequences shape: (5508, 30, 49)
X_test_sequences shape: (3899, 30, 49)
Num classes:  6
Unique labels in y_train: [0 1 2 3 4 5]
Unique labels in y_val: [0 1 2 3]
Unique labels in y_test: [0 1 2 3]
Model: "sequential"
_________________________________________________________________
 Layer (type)                Output Shape              Param #
=================================================================
 gru (GRU)                   (None, 30, 128)           68736

 dropout (Dropout)           (None, 30, 128)           0

 batch_normalization (Batch  (None, 30, 128)           512
 Normalization)

 gru_1 (GRU)                 (None, 128)               99072

 dropout_1 (Dropout)         (None, 128)               0

 batch_normalization_1 (Bat  (None, 128)               512
 chNormalization)

 dense (Dense)               (None, 32)                4128

 dense_1 (Dense)             (None, 6)                 198

=================================================================
Total params: 173158 (676.40 KB)
Trainable params: 172646 (674.40 KB)
Non-trainable params: 512 (2.00 KB)
_________________________________________________________________
Epoch 1/500
579/579 - 13s - loss: 2.4159 - accuracy: 0.4062 - precision: 0.7939 - recall: 0.1078 - auc: 0.7255 - val_loss: 2.2621 - val_accuracy: 0.4766 - val_precision: 0.7647 - val_recall: 0.1935 - val_auc: 0.7873 - 13s/epoch - 22ms/step
…
