…
X_test_sequences shape: (3899, 30, 24)
WARNING:tensorflow:Layer gru will not use cuDNN kernels since it doesn't meet the criteria. It will use a generic GPU kernel as fallback when running on GPU.
WARNING:tensorflow:Layer gru_1 will not use cuDNN kernels since it doesn't meet the criteria. It will use a generic GPU kernel as fallback when running on GPU.
Model: "sequential"
_________________________________________________________________
 Layer (type)                Output Shape              Param #
=================================================================
 gru (GRU)                   (None, 30, 256)           216576

 dropout (Dropout)           (None, 30, 256)           0

 batch_normalization (Batch  (None, 30, 256)           1024
 Normalization)

 gru_1 (GRU)                 (None, 256)               394752

 dropout_1 (Dropout)         (None, 256)               0

 batch_normalization_1 (Bat  (None, 256)               1024
 chNormalization)

 dense (Dense)               (None, 64)                16448

 dense_1 (Dense)             (None, 2)                 130

=================================================================
Total params: 629954 (2.40 MB)
Trainable params: 628930 (2.40 MB)
Non-trainable params: 1024 (4.00 KB)
_________________________________________________________________
Epoch 1/500
145/145 - 23s - loss: 9.0631 - accuracy: 0.5172 - precision: 0.5172 - recall: 0.5172 - auc: 0.5246 - val_loss: 8.8831 - val_accuracy: 0.4971 - val_precision: 0.4971 - val_recall: 0.4971 - val_auc: 0.5919 - 23s/epoch - 161ms/step
…
