…
Test shapes: (3986, 49) (3986,)
Train sequences shape: (18028, 60, 49) (18028,)
X_train_sequences shape: (18028, 60, 49)
X_val_sequences shape: (5358, 60, 49)
X_test_sequences shape: (3809, 60, 49)
WARNING:tensorflow:Layer gru will not use cuDNN kernels since it doesn't meet the criteria. It will use a generic GPU kernel as fallback when running on GPU.
Model: "sequential"
_________________________________________________________________
 Layer (type)                Output Shape              Param #
=================================================================
 gru (GRU)                   (None, 256)               235776

 dropout (Dropout)           (None, 256)               0

 batch_normalization (Batch  (None, 256)               1024
 Normalization)

 dense (Dense)               (None, 64)                16448

 dense_1 (Dense)             (None, 2)                 130

=================================================================
Total params: 253378 (989.76 KB)
Trainable params: 252866 (987.76 KB)
Non-trainable params: 512 (2.00 KB)
_________________________________________________________________
Epoch 1/500
282/282 - 27s - loss: 3.0240 - accuracy: 0.6241 - precision: 0.6241 - recall: 0.6241 - auc: 0.6757 - val_loss: nan - val_accuracy: 0.4890 - val_precision: 0.0000e+00 - val_recall: 0.0000e+00 - val_auc: 0.5000 - 27s/epoch - 96ms/step
…
