…
X_test_sequences shape: (3809, 60, 24)
WARNING:tensorflow:Layer gru will not use cuDNN kernels since it doesn't meet the criteria. It will use a generic GPU kernel as fallback when running on GPU.
WARNING:tensorflow:Layer gru_1 will not use cuDNN kernels since it doesn't meet the criteria. It will use a generic GPU kernel as fallback when running on GPU.
Model: "sequential"
_________________________________________________________________
 Layer (type)                Output Shape              Param #
=================================================================
 gru (GRU)                   (None, 60, 128)           59136

 dropout (Dropout)           (None, 60, 128)           0

 batch_normalization (Batch  (None, 60, 128)           512
 Normalization)

 gru_1 (GRU)                 (None, 128)               99072

 dropout_1 (Dropout)         (None, 128)               0

 batch_normalization_1 (Bat  (None, 128)               512
 chNormalization)

 dense (Dense)               (None, 64)                8256

 dense_1 (Dense)             (None, 2)                 130

=================================================================
Total params: 167618 (654.76 KB)
Trainable params: 167106 (652.76 KB)
Non-trainable params: 512 (2.00 KB)
_________________________________________________________________
Epoch 1/500
141/141 - 26s - loss: 5.9479 - accuracy: 0.5131 - precision: 0.5131 - recall: 0.5131 - auc: 0.5170 - val_loss: 5.1835 - val_accuracy: 0.5110 - val_precision: 0.5110 - val_recall: 0.5110 - val_auc: 0.5418 - 26s/epoch - 186ms/step
…
