…
WARNING:tensorflow:Layer gru_2 will not use cuDNN kernels since it doesn't meet the criteria. It will use a generic GPU kernel as fallback when running on GPU.
WARNING:tensorflow:Layer gru_2 will not use cuDNN kernels since it doesn't meet the criteria. It will use a generic GPU kernel as fallback when running on GPU.
WARNING:tensorflow:Layer gru_2 will not use cuDNN kernels since it doesn't meet the criteria. It will use a generic GPU kernel as fallback when running on GPU.
Model output classes: 2
Model: "sequential"
_________________________________________________________________
 Layer (type)                Output Shape              Param #
=================================================================
 bidirectional (Bidirection  (None, 60, 512)           434688
 al)

 dropout (Dropout)           (None, 60, 512)           0

 batch_normalization (Batch  (None, 60, 512)           2048
 Normalization)

 bidirectional_1 (Bidirecti  (None, 60, 512)           1182720
 onal)

 dropout_1 (Dropout)         (None, 60, 512)           0

 batch_normalization_1 (Bat  (None, 60, 512)           2048
 chNormalization)

 bidirectional_2 (Bidirecti  (None, 512)               1182720
 onal)

 dropout_2 (Dropout)         (None, 512)               0

 batch_normalization_2 (Bat  (None, 512)               2048
 chNormalization)

 dense (Dense)               (None, 64)                32832

 dense_1 (Dense)             (None, 2)                 130

=================================================================
Total params: 2839234 (10.83 MB)
Trainable params: 2836162 (10.82 MB)
Non-trainable params: 3072 (12.00 KB)
_________________________________________________________________
Epoch 1/500
