…
Validation fold: ['p2nodbot' 'p6nodbot' 'p9nodbot' 'p19nodbot' 'p22nodbot']
Test fold: ['p18nodbot' 'p27nodbot' 'p5nodbot']
Train shapes: (18972, 24) (18972,)
Validation shapes: (5653, 24) (5653,)
Test shapes: (3986, 24) (3986,)
Train sequences shape: (17548, 90, 24) (17548,)
X_train_sequences shape: (17548, 90, 24)
X_val_sequences shape: (5208, 90, 24)
X_test_sequences shape: (3719, 90, 24)
Model: "sequential"
_________________________________________________________________
 Layer (type)                Output Shape              Param #
=================================================================
 gru (GRU)                   (None, 90, 64)            17280

 dropout (Dropout)           (None, 90, 64)            0

 batch_normalization (Batch  (None, 90, 64)            256
 Normalization)

 gru_1 (GRU)                 (None, 64)                24960

 dropout_1 (Dropout)         (None, 64)                0

 batch_normalization_1 (Bat  (None, 64)                256
 chNormalization)

 dense (Dense)               (None, 128)               8320

 dense_1 (Dense)             (None, 1)                 129

=================================================================
Total params: 51201 (200.00 KB)
Trainable params: 50945 (199.00 KB)
Non-trainable params: 256 (1.00 KB)
_________________________________________________________________
Epoch 1/500
549/549 - 23s - loss: 4.7690 - accuracy: 0.5282 - precision: 0.5795 - recall: 0.5204 - auc: 0.5417 - val_loss: 4.5224 - val_accuracy: 0.5252 - val_precision: 0.5611 - val_recall: 0.4445 - val_auc: 0.5462 - 23s/epoch - 42ms/step
…
