…
Test shapes: (3986, 49) (3986,)
Train sequences shape: (18028, 60, 49) (18028,)
X_train_sequences shape: (18028, 60, 49)
X_val_sequences shape: (5358, 60, 49)
X_test_sequences shape: (3809, 60, 49)
WARNING:tensorflow:Layer gru will not use cuDNN kernels since it doesn't meet the criteria. It will use a generic GPU kernel as fallback when running on GPU.
Model: "sequential"
_________________________________________________________________
 Layer (type)                Output Shape              Param #
=================================================================
 gru (GRU)                   (None, 64)                22080

 dropout (Dropout)           (None, 64)                0

 batch_normalization (Batch  (None, 64)                256
 Normalization)

 dense (Dense)               (None, 128)               8320

 dense_1 (Dense)             (None, 1)                 129

=================================================================
Total params: 30785 (120.25 KB)
Trainable params: 30657 (119.75 KB)
Non-trainable params: 128 (512.00 Byte)
_________________________________________________________________
Epoch 1/500
564/564 - 58s - loss: 5.7457 - accuracy: 0.5489 - precision: 0.5685 - recall: 0.6560 - auc: 0.5725 - val_loss: 3.7051 - val_accuracy: 0.5754 - val_precision: 0.5567 - val_recall: 0.8298 - val_auc: 0.6323 - 58s/epoch - 103ms/step
…
