…
Validation shapes: (5653, 49) (5653,)
Test shapes: (3986, 49) (3986,)
Train sequences shape: (18508, 30, 49) (18508,)
X_train_sequences shape: (18508, 30, 49)
X_val_sequences shape: (5508, 30, 49)
X_test_sequences shape: (3899, 30, 49)
Num classes:  6
Unique labels in y_train: [0 1 2 3 4 5]
Unique labels in y_val: [0 1 2 3]
Unique labels in y_test: [0 1 2 3]
Model: "sequential"
_________________________________________________________________
 Layer (type)                Output Shape              Param #
=================================================================
 bidirectional (Bidirection  (None, 30, 128)           44160
 al)

 dropout (Dropout)           (None, 30, 128)           0

 batch_normalization (Batch  (None, 30, 128)           512
 Normalization)

 bidirectional_1 (Bidirecti  (None, 128)               74496
 onal)

 dropout_1 (Dropout)         (None, 128)               0

 batch_normalization_1 (Bat  (None, 128)               512
 chNormalization)

 dense (Dense)               (None, 64)                8256

 dense_1 (Dense)             (None, 6)                 390

=================================================================
Total params: 128326 (501.27 KB)
Trainable params: 127814 (499.27 KB)
Non-trainable params: 512 (2.00 KB)
_________________________________________________________________
Epoch 1/500
145/145 - 30s - loss: 18.2199 - accuracy: 0.1649 - precision: 0.1492 - recall: 0.0218 - auc: 0.4957 - val_loss: 17.7867 - val_accuracy: 0.1883 - val_precision: 0.0000e+00 - val_recall: 0.0000e+00 - val_auc: 0.5770 - 30s/epoch - 206ms/step
…
