…
Test shapes: (3986, 30) (3986,)
Train sequences shape: (18508, 30, 30) (18508,)
X_train_sequences shape: (18508, 30, 30)
X_val_sequences shape: (5508, 30, 30)
X_test_sequences shape: (3899, 30, 30)
WARNING:tensorflow:Layer gru will not use cuDNN kernels since it doesn't meet the criteria. It will use a generic GPU kernel as fallback when running on GPU.
Model: "sequential"
_________________________________________________________________
 Layer (type)                Output Shape              Param #
=================================================================
 gru (GRU)                   (None, 128)               61440

 dropout (Dropout)           (None, 128)               0

 batch_normalization (Batch  (None, 128)               512
 Normalization)

 dense (Dense)               (None, 64)                8256

 dense_1 (Dense)             (None, 1)                 65

=================================================================
Total params: 70273 (274.50 KB)
Trainable params: 70017 (273.50 KB)
Non-trainable params: 256 (1.00 KB)
_________________________________________________________________
Epoch 1/500
290/290 - 16s - loss: 0.4988 - accuracy: 0.8290 - precision: 0.8173 - recall: 0.8660 - auc: 0.9085 - val_loss: 1.3138 - val_accuracy: 0.5156 - val_precision: 0.5206 - val_recall: 0.3236 - val_auc: 0.6008 - 16s/epoch - 53ms/step
…
