…
Test shapes: (3986, 49) (3986,)
Train sequences shape: (18508, 30, 49) (18508,)
X_train_sequences shape: (18508, 30, 49)
X_val_sequences shape: (5508, 30, 49)
X_test_sequences shape: (3899, 30, 49)
WARNING:tensorflow:Layer gru will not use cuDNN kernels since it doesn't meet the criteria. It will use a generic GPU kernel as fallback when running on GPU.
Model: "sequential"
_________________________________________________________________
 Layer (type)                Output Shape              Param #
=================================================================
 gru (GRU)                   (None, 128)               68736

 dropout (Dropout)           (None, 128)               0

 batch_normalization (Batch  (None, 128)               512
 Normalization)

 dense (Dense)               (None, 64)                8256

 dense_1 (Dense)             (None, 2)                 130

=================================================================
Total params: 77634 (303.26 KB)
Trainable params: 77378 (302.26 KB)
Non-trainable params: 256 (1.00 KB)
_________________________________________________________________
Epoch 1/500
