…
Validation fold: ['p2nodbot' 'p6nodbot' 'p9nodbot' 'p19nodbot' 'p22nodbot']
Test fold: ['p18nodbot' 'p27nodbot' 'p5nodbot']
Train shapes: (18972, 24) (18972,)
Validation shapes: (5653, 24) (5653,)
Test shapes: (3986, 24) (3986,)
Train sequences shape: (18508, 30, 24) (18508,)
X_train_sequences shape: (18508, 30, 24)
X_val_sequences shape: (5508, 30, 24)
X_test_sequences shape: (3899, 30, 24)
Model: "sequential"
_________________________________________________________________
 Layer (type)                Output Shape              Param #
=================================================================
 gru (GRU)                   (None, 30, 64)            17280

 dropout (Dropout)           (None, 30, 64)            0

 batch_normalization (Batch  (None, 30, 64)            256
 Normalization)

 gru_1 (GRU)                 (None, 64)                24960

 dropout_1 (Dropout)         (None, 64)                0

 batch_normalization_1 (Bat  (None, 64)                256
 chNormalization)

 dense (Dense)               (None, 32)                2080

 dense_1 (Dense)             (None, 2)                 66

=================================================================
Total params: 44898 (175.38 KB)
Trainable params: 44642 (174.38 KB)
Non-trainable params: 256 (1.00 KB)
_________________________________________________________________
Epoch 1/500
290/290 - 7s - loss: 4.9846 - accuracy: 0.4951 - precision: 0.4951 - recall: 0.4951 - auc: 0.4940 - val_loss: 4.7937 - val_accuracy: 0.4615 - val_precision: 0.4615 - val_recall: 0.4615 - val_auc: 0.4716 - 7s/epoch - 23ms/step
…
