…
WARNING:tensorflow:Layer gru_1 will not use cuDNN kernels since it doesn't meet the criteria. It will use a generic GPU kernel as fallback when running on GPU.
WARNING:tensorflow:Layer gru_1 will not use cuDNN kernels since it doesn't meet the criteria. It will use a generic GPU kernel as fallback when running on GPU.
WARNING:tensorflow:Layer gru_1 will not use cuDNN kernels since it doesn't meet the criteria. It will use a generic GPU kernel as fallback when running on GPU.
Model: "sequential"
_________________________________________________________________
 Layer (type)                Output Shape              Param #
=================================================================
 bidirectional (Bidirection  (None, 90, 256)           137472
 al)

 dropout (Dropout)           (None, 90, 256)           0

 batch_normalization (Batch  (None, 90, 256)           1024
 Normalization)

 bidirectional_1 (Bidirecti  (None, 256)               296448
 onal)

 dropout_1 (Dropout)         (None, 256)               0

 batch_normalization_1 (Bat  (None, 256)               1024
 chNormalization)

 dense (Dense)               (None, 32)                8224

 dense_1 (Dense)             (None, 2)                 66

=================================================================
Total params: 444258 (1.69 MB)
Trainable params: 443234 (1.69 MB)
Non-trainable params: 1024 (4.00 KB)
_________________________________________________________________
Epoch 1/500
