…
Validation fold: ['p2nodbot' 'p6nodbot' 'p9nodbot' 'p19nodbot' 'p22nodbot']
Test fold: ['p18nodbot' 'p27nodbot' 'p5nodbot']
Train shapes: (18972, 49) (18972,)
Validation shapes: (5653, 49) (5653,)
Test shapes: (3986, 49) (3986,)
Train sequences shape: (18028, 60, 49) (18028,)
X_train_sequences shape: (18028, 60, 49)
X_val_sequences shape: (5358, 60, 49)
X_test_sequences shape: (3809, 60, 49)
Model: "sequential"
_________________________________________________________________
 Layer (type)                Output Shape              Param #
=================================================================
 gru (GRU)                   (None, 60, 256)           235776

 dropout (Dropout)           (None, 60, 256)           0

 batch_normalization (Batch  (None, 60, 256)           1024
 Normalization)

 gru_1 (GRU)                 (None, 256)               394752

 dropout_1 (Dropout)         (None, 256)               0

 batch_normalization_1 (Bat  (None, 256)               1024
 chNormalization)

 dense (Dense)               (None, 64)                16448

 dense_1 (Dense)             (None, 1)                 65

=================================================================
Total params: 649089 (2.48 MB)
Trainable params: 648065 (2.47 MB)
Non-trainable params: 1024 (4.00 KB)
_________________________________________________________________
Epoch 1/500
141/141 - 6s - loss: 1.7224 - accuracy: 0.4963 - precision: 0.5322 - recall: 0.4954 - auc: 0.4941 - val_loss: 1.6197 - val_accuracy: 0.4461 - val_precision: 0.4315 - val_recall: 0.2648 - val_auc: 0.4513 - 6s/epoch - 41ms/step
…
