…
Validation fold: ['p2nodbot' 'p6nodbot' 'p9nodbot' 'p19nodbot' 'p22nodbot']
Test fold: ['p18nodbot' 'p27nodbot' 'p5nodbot']
Train shapes: (18972, 25) (18972,)
Validation shapes: (5653, 25) (5653,)
Test shapes: (3986, 25) (3986,)
Train sequences shape: (17548, 90, 25) (17548,)
X_train_sequences shape: (17548, 90, 25)
X_val_sequences shape: (5208, 90, 25)
X_test_sequences shape: (3719, 90, 25)
Model: "sequential"
_________________________________________________________________
 Layer (type)                Output Shape              Param #
=================================================================
 bidirectional (Bidirection  (None, 90, 128)           34944
 al)

 dropout (Dropout)           (None, 90, 128)           0

 batch_normalization (Batch  (None, 90, 128)           512
 Normalization)

 bidirectional_1 (Bidirecti  (None, 90, 128)           74496
 onal)

 dropout_1 (Dropout)         (None, 90, 128)           0

 batch_normalization_1 (Bat  (None, 90, 128)           512
 chNormalization)

 bidirectional_2 (Bidirecti  (None, 128)               74496
 onal)

 dropout_2 (Dropout)         (None, 128)               0

 batch_normalization_2 (Bat  (None, 128)               512
 chNormalization)

 dense (Dense)               (None, 64)                8256

 dense_1 (Dense)             (None, 2)                 130

=================================================================
Total params: 193858 (757.26 KB)
Trainable params: 193090 (754.26 KB)
Non-trainable params: 768 (3.00 KB)
_________________________________________________________________
Epoch 1/500
275/275 - 31s - loss: 0.8751 - accuracy: 0.6601 - precision: 0.6601 - recall: 0.6601 - auc: 0.6909 - val_loss: 0.6978 - val_accuracy: 0.7014 - val_precision: 0.7014 - val_recall: 0.7014 - val_auc: 0.7342 - 31s/epoch - 112ms/step
…
