…
Validation fold: ['p2nodbot' 'p6nodbot' 'p9nodbot' 'p19nodbot' 'p22nodbot']
Test fold: ['p18nodbot' 'p27nodbot' 'p5nodbot']
Train shapes: (18972, 24) (18972,)
Validation shapes: (5653, 24) (5653,)
Test shapes: (3986, 24) (3986,)
Train sequences shape: (17548, 90, 24) (17548,)
X_train_sequences shape: (17548, 90, 24)
X_val_sequences shape: (5208, 90, 24)
X_test_sequences shape: (3719, 90, 24)
Model: "sequential"
_________________________________________________________________
 Layer (type)                Output Shape              Param #
=================================================================
 bidirectional (Bidirection  (None, 90, 256)           118272
 al)

 dropout (Dropout)           (None, 90, 256)           0

 batch_normalization (Batch  (None, 90, 256)           1024
 Normalization)

 bidirectional_1 (Bidirecti  (None, 90, 256)           296448
 onal)

 dropout_1 (Dropout)         (None, 90, 256)           0

 batch_normalization_1 (Bat  (None, 90, 256)           1024
 chNormalization)

 bidirectional_2 (Bidirecti  (None, 256)               296448
 onal)

 dropout_2 (Dropout)         (None, 256)               0

 batch_normalization_2 (Bat  (None, 256)               1024
 chNormalization)

 dense (Dense)               (None, 64)                16448

 dense_1 (Dense)             (None, 2)                 130

=================================================================
Total params: 730818 (2.79 MB)
Trainable params: 729282 (2.78 MB)
Non-trainable params: 1536 (6.00 KB)
_________________________________________________________________
Epoch 1/500
