…
WARNING:tensorflow:Layer gru_2 will not use cuDNN kernels since it doesn't meet the criteria. It will use a generic GPU kernel as fallback when running on GPU.
WARNING:tensorflow:Layer gru_2 will not use cuDNN kernels since it doesn't meet the criteria. It will use a generic GPU kernel as fallback when running on GPU.
Num classes:  2
Unique labels in y_train: [0 1 2 3 4 5]
Unique labels in y_val: [0 1 2 3]
Unique labels in y_test: [0 1 2 3]
Model output classes: 2
Model: "sequential"
_________________________________________________________________
 Layer (type)                Output Shape              Param #
=================================================================
 bidirectional (Bidirection  (None, 30, 256)           119040
 al)

 dropout (Dropout)           (None, 30, 256)           0

 batch_normalization (Batch  (None, 30, 256)           1024
 Normalization)

 bidirectional_1 (Bidirecti  (None, 30, 256)           296448
 onal)

 dropout_1 (Dropout)         (None, 30, 256)           0

 batch_normalization_1 (Bat  (None, 30, 256)           1024
 chNormalization)

 bidirectional_2 (Bidirecti  (None, 256)               296448
 onal)

 dropout_2 (Dropout)         (None, 256)               0

 batch_normalization_2 (Bat  (None, 256)               1024
 chNormalization)

 dense (Dense)               (None, 128)               32896

 dense_1 (Dense)             (None, 2)                 258

=================================================================
Total params: 748162 (2.85 MB)
Trainable params: 746626 (2.85 MB)
Non-trainable params: 1536 (6.00 KB)
_________________________________________________________________
Epoch 1/500
