…
X_test_sequences shape: (3809, 60, 24)
WARNING:tensorflow:Layer gru will not use cuDNN kernels since it doesn't meet the criteria. It will use a generic GPU kernel as fallback when running on GPU.
WARNING:tensorflow:Layer gru_1 will not use cuDNN kernels since it doesn't meet the criteria. It will use a generic GPU kernel as fallback when running on GPU.
Model: "sequential"
_________________________________________________________________
 Layer (type)                Output Shape              Param #
=================================================================
 gru (GRU)                   (None, 60, 256)           216576

 dropout (Dropout)           (None, 60, 256)           0

 batch_normalization (Batch  (None, 60, 256)           1024
 Normalization)

 gru_1 (GRU)                 (None, 256)               394752

 dropout_1 (Dropout)         (None, 256)               0

 batch_normalization_1 (Bat  (None, 256)               1024
 chNormalization)

 dense (Dense)               (None, 128)               32896

 dense_1 (Dense)             (None, 2)                 258

=================================================================
Total params: 646530 (2.47 MB)
Trainable params: 645506 (2.46 MB)
Non-trainable params: 1024 (4.00 KB)
_________________________________________________________________
Epoch 1/500
