…
Validation fold: ['p2nodbot' 'p6nodbot' 'p9nodbot' 'p19nodbot' 'p22nodbot']
Test fold: ['p18nodbot' 'p27nodbot' 'p5nodbot']
Train shapes: (18972, 49) (18972,)
Validation shapes: (5653, 49) (5653,)
Test shapes: (3986, 49) (3986,)
Train sequences shape: (18508, 30, 49) (18508,)
X_train_sequences shape: (18508, 30, 49)
X_val_sequences shape: (5508, 30, 49)
X_test_sequences shape: (3899, 30, 49)
Model: "sequential"
_________________________________________________________________
 Layer (type)                Output Shape              Param #
=================================================================
 gru (GRU)                   (None, 256)               235776

 dropout (Dropout)           (None, 256)               0

 batch_normalization (Batch  (None, 256)               1024
 Normalization)

 dense (Dense)               (None, 32)                8224

 dense_1 (Dense)             (None, 1)                 33

=================================================================
Total params: 245057 (957.25 KB)
Trainable params: 244545 (955.25 KB)
Non-trainable params: 512 (2.00 KB)
_________________________________________________________________
Epoch 1/500
145/145 - 5s - loss: 17.4645 - accuracy: 0.5373 - precision: 0.5606 - recall: 0.5256 - auc: 0.5607 - val_loss: 17.0680 - val_accuracy: 0.6040 - val_precision: 0.5826 - val_recall: 0.7173 - val_auc: 0.6636 - 5s/epoch - 32ms/step
…
