…
WARNING:tensorflow:Layer gru will not use cuDNN kernels since it doesn't meet the criteria. It will use a generic GPU kernel as fallback when running on GPU.
WARNING:tensorflow:Layer gru_1 will not use cuDNN kernels since it doesn't meet the criteria. It will use a generic GPU kernel as fallback when running on GPU.
Num classes:  6
Unique labels in y_train: [0 1 2 3 4 5]
Unique labels in y_val: [0 1 2 3]
Unique labels in y_test: [0 1 2 3]
Model: "sequential"
_________________________________________________________________
 Layer (type)                Output Shape              Param #
=================================================================
 gru (GRU)                   (None, 90, 128)           68736

 dropout (Dropout)           (None, 90, 128)           0

 batch_normalization (Batch  (None, 90, 128)           512
 Normalization)

 gru_1 (GRU)                 (None, 128)               99072

 dropout_1 (Dropout)         (None, 128)               0

 batch_normalization_1 (Bat  (None, 128)               512
 chNormalization)

 dense (Dense)               (None, 64)                8256

 dense_1 (Dense)             (None, 6)                 390

=================================================================
Total params: 177478 (693.27 KB)
Trainable params: 176966 (691.27 KB)
Non-trainable params: 512 (2.00 KB)
_________________________________________________________________
Epoch 1/500
549/549 - 182s - loss: 2.3986 - accuracy: 0.4510 - precision: 0.6054 - recall: 0.2842 - auc: 0.8005 - val_loss: 2.1667 - val_accuracy: 0.4914 - val_precision: 0.6560 - val_recall: 0.3694 - val_auc: 0.8445 - 182s/epoch - 331ms/step
…
