…
WARNING:tensorflow:Layer gru_2 will not use cuDNN kernels since it doesn't meet the criteria. It will use a generic GPU kernel as fallback when running on GPU.
WARNING:tensorflow:Layer gru_2 will not use cuDNN kernels since it doesn't meet the criteria. It will use a generic GPU kernel as fallback when running on GPU.
WARNING:tensorflow:Layer gru_2 will not use cuDNN kernels since it doesn't meet the criteria. It will use a generic GPU kernel as fallback when running on GPU.
Model: "sequential"
_________________________________________________________________
 Layer (type)                Output Shape              Param #
=================================================================
 bidirectional (Bidirection  (None, 30, 256)           145152
 al)

 dropout (Dropout)           (None, 30, 256)           0

 batch_normalization (Batch  (None, 30, 256)           1024
 Normalization)

 bidirectional_1 (Bidirecti  (None, 30, 256)           296448
 onal)

 dropout_1 (Dropout)         (None, 30, 256)           0

 batch_normalization_1 (Bat  (None, 30, 256)           1024
 chNormalization)

 bidirectional_2 (Bidirecti  (None, 256)               296448
 onal)

 dropout_2 (Dropout)         (None, 256)               0

 batch_normalization_2 (Bat  (None, 256)               1024
 chNormalization)

 dense (Dense)               (None, 32)                8224

 dense_1 (Dense)             (None, 1)                 33

=================================================================
Total params: 749377 (2.86 MB)
Trainable params: 747841 (2.85 MB)
Non-trainable params: 1536 (6.00 KB)
_________________________________________________________________
Epoch 1/500
145/145 - 30s - loss: 1.0386 - accuracy: 0.7846 - precision: 0.7684 - recall: 0.8406 - auc: 0.8576 - val_loss: 1.2298 - val_accuracy: 0.5372 - val_precision: 0.5186 - val_recall: 0.9646 - val_auc: 0.6785 - 30s/epoch - 206ms/step
…
