…
WARNING:tensorflow:Layer gru_2 will not use cuDNN kernels since it doesn't meet the criteria. It will use a generic GPU kernel as fallback when running on GPU.
WARNING:tensorflow:Layer gru_2 will not use cuDNN kernels since it doesn't meet the criteria. It will use a generic GPU kernel as fallback when running on GPU.
WARNING:tensorflow:Layer gru_2 will not use cuDNN kernels since it doesn't meet the criteria. It will use a generic GPU kernel as fallback when running on GPU.
Model: "sequential"
_________________________________________________________________
 Layer (type)                Output Shape              Param #
=================================================================
 bidirectional (Bidirection  (None, 90, 512)           434688
 al)

 dropout (Dropout)           (None, 90, 512)           0

 batch_normalization (Batch  (None, 90, 512)           2048
 Normalization)

 bidirectional_1 (Bidirecti  (None, 90, 512)           1182720
 onal)

 dropout_1 (Dropout)         (None, 90, 512)           0

 batch_normalization_1 (Bat  (None, 90, 512)           2048
 chNormalization)

 bidirectional_2 (Bidirecti  (None, 512)               1182720
 onal)

 dropout_2 (Dropout)         (None, 512)               0

 batch_normalization_2 (Bat  (None, 512)               2048
 chNormalization)

 dense (Dense)               (None, 64)                32832

 dense_1 (Dense)             (None, 2)                 130

=================================================================
Total params: 2839234 (10.83 MB)
Trainable params: 2836162 (10.82 MB)
Non-trainable params: 3072 (12.00 KB)
_________________________________________________________________
Epoch 1/500
138/138 - 91s - loss: 41.4381 - accuracy: 0.6465 - precision: 0.6465 - recall: 0.6465 - auc: 0.6837 - val_loss: 5.4032 - val_accuracy: 0.4889 - val_precision: 0.4889 - val_recall: 0.4889 - val_auc: 0.5765 - 91s/epoch - 658ms/step
…
