…
Validation fold: ['p2nodbot' 'p6nodbot' 'p9nodbot' 'p19nodbot' 'p22nodbot']
Test fold: ['p18nodbot' 'p27nodbot' 'p5nodbot']
Train shapes: (18972, 49) (18972,)
Validation shapes: (5653, 49) (5653,)
Test shapes: (3986, 49) (3986,)
Train sequences shape: (18028, 60, 49) (18028,)
X_train_sequences shape: (18028, 60, 49)
X_val_sequences shape: (5358, 60, 49)
X_test_sequences shape: (3809, 60, 49)
Model: "sequential"
_________________________________________________________________
 Layer (type)                Output Shape              Param #
=================================================================
 gru (GRU)                   (None, 128)               68736

 dropout (Dropout)           (None, 128)               0

 batch_normalization (Batch  (None, 128)               512
 Normalization)

 dense (Dense)               (None, 64)                8256

 dense_1 (Dense)             (None, 1)                 65

=================================================================
Total params: 77569 (303.00 KB)
Trainable params: 77313 (302.00 KB)
Non-trainable params: 256 (1.00 KB)
_________________________________________________________________
Epoch 1/500
564/564 - 9s - loss: 11.4637 - accuracy: 0.5482 - precision: 0.5828 - recall: 0.5522 - auc: 0.5563 - val_loss: 11.0021 - val_accuracy: 0.6168 - val_precision: 0.6076 - val_recall: 0.7064 - val_auc: 0.6616 - 9s/epoch - 16ms/step
…
