…
X_test_sequences shape: (3809, 60, 84)
WARNING:tensorflow:Layer gru will not use cuDNN kernels since it doesn't meet the criteria. It will use a generic GPU kernel as fallback when running on GPU.
WARNING:tensorflow:Layer gru_1 will not use cuDNN kernels since it doesn't meet the criteria. It will use a generic GPU kernel as fallback when running on GPU.
Model: "sequential"
_________________________________________________________________
 Layer (type)                Output Shape              Param #
=================================================================
 gru (GRU)                   (None, 60, 256)           262656

 dropout (Dropout)           (None, 60, 256)           0

 batch_normalization (Batch  (None, 60, 256)           1024
 Normalization)

 gru_1 (GRU)                 (None, 256)               394752

 dropout_1 (Dropout)         (None, 256)               0

 batch_normalization_1 (Bat  (None, 256)               1024
 chNormalization)

 dense (Dense)               (None, 64)                16448

 dense_1 (Dense)             (None, 2)                 130

=================================================================
Total params: 676034 (2.58 MB)
Trainable params: 675010 (2.57 MB)
Non-trainable params: 1024 (4.00 KB)
_________________________________________________________________
Epoch 1/500
564/564 - 104s - loss: 2.2161 - accuracy: 0.5316 - precision: 0.5316 - recall: 0.5316 - auc: 0.5416 - val_loss: 2.1810 - val_accuracy: 0.5220 - val_precision: 0.5220 - val_recall: 0.5220 - val_auc: 0.5554 - 104s/epoch - 184ms/step
…
