…
Validation fold: ['p2nodbot' 'p6nodbot' 'p9nodbot' 'p19nodbot' 'p22nodbot']
Test fold: ['p18nodbot' 'p27nodbot' 'p5nodbot']
Train shapes: (18972, 34) (18972,)
Validation shapes: (5653, 34) (5653,)
Test shapes: (3986, 34) (3986,)
Train sequences shape: (17548, 90, 34) (17548,)
X_train_sequences shape: (17548, 90, 34)
X_val_sequences shape: (5208, 90, 34)
X_test_sequences shape: (3719, 90, 34)
Model: "sequential"
_________________________________________________________________
 Layer (type)                Output Shape              Param #
=================================================================
 gru (GRU)                   (None, 90, 128)           62976

 dropout (Dropout)           (None, 90, 128)           0

 batch_normalization (Batch  (None, 90, 128)           512
 Normalization)

 gru_1 (GRU)                 (None, 128)               99072

 dropout_1 (Dropout)         (None, 128)               0

 batch_normalization_1 (Bat  (None, 128)               512
 chNormalization)

 dense (Dense)               (None, 128)               16512

 dense_1 (Dense)             (None, 2)                 258

=================================================================
Total params: 179842 (702.51 KB)
Trainable params: 179330 (700.51 KB)
Non-trainable params: 512 (2.00 KB)
_________________________________________________________________
Epoch 1/500
275/275 - 6s - loss: 1.5257 - accuracy: 0.6947 - precision: 0.6947 - recall: 0.6947 - auc: 0.7544 - val_loss: 1.7025 - val_accuracy: 0.6325 - val_precision: 0.6325 - val_recall: 0.6325 - val_auc: 0.6753 - 6s/epoch - 23ms/step
…
