…
Validation shapes: (5653, 49) (5653,)
Test shapes: (3986, 49) (3986,)
Train sequences shape: (18028, 60, 49) (18028,)
X_train_sequences shape: (18028, 60, 49)
X_val_sequences shape: (5358, 60, 49)
X_test_sequences shape: (3809, 60, 49)
Num classes:  6
Unique labels in y_train: [0 1 2 3 4 5]
Unique labels in y_val: [0 1 2 3]
Unique labels in y_test: [0 1 2 3]
Model: "sequential"
_________________________________________________________________
 Layer (type)                Output Shape              Param #
=================================================================
 gru (GRU)                   (None, 60, 128)           68736

 dropout (Dropout)           (None, 60, 128)           0

 batch_normalization (Batch  (None, 60, 128)           512
 Normalization)

 gru_1 (GRU)                 (None, 128)               99072

 dropout_1 (Dropout)         (None, 128)               0

 batch_normalization_1 (Bat  (None, 128)               512
 chNormalization)

 dense (Dense)               (None, 64)                8256

 dense_1 (Dense)             (None, 6)                 390

=================================================================
Total params: 177478 (693.27 KB)
Trainable params: 176966 (691.27 KB)
Non-trainable params: 512 (2.00 KB)
_________________________________________________________________
Epoch 1/500
282/282 - 13s - loss: 1.5567 - accuracy: 0.5230 - precision: 0.7160 - recall: 0.3354 - auc: 0.8412 - val_loss: 1.8594 - val_accuracy: 0.4153 - val_precision: 0.4646 - val_recall: 0.3376 - val_auc: 0.7928 - 13s/epoch - 45ms/step
…
