…
WARNING:tensorflow:Layer gru_1 will not use cuDNN kernels since it doesn't meet the criteria. It will use a generic GPU kernel as fallback when running on GPU.
WARNING:tensorflow:Layer gru_1 will not use cuDNN kernels since it doesn't meet the criteria. It will use a generic GPU kernel as fallback when running on GPU.
WARNING:tensorflow:Layer gru_1 will not use cuDNN kernels since it doesn't meet the criteria. It will use a generic GPU kernel as fallback when running on GPU.
Model: "sequential"
_________________________________________________________________
 Layer (type)                Output Shape              Param #
=================================================================
 bidirectional (Bidirection  (None, 30, 512)           459264
 al)

 dropout (Dropout)           (None, 30, 512)           0

 batch_normalization (Batch  (None, 30, 512)           2048
 Normalization)

 bidirectional_1 (Bidirecti  (None, 512)               1182720
 onal)

 dropout_1 (Dropout)         (None, 512)               0

 batch_normalization_1 (Bat  (None, 512)               2048
 chNormalization)

 dense (Dense)               (None, 128)               65664

 dense_1 (Dense)             (None, 1)                 129

=================================================================
Total params: 1711873 (6.53 MB)
Trainable params: 1709825 (6.52 MB)
Non-trainable params: 2048 (8.00 KB)
_________________________________________________________________
Epoch 1/500
290/290 - 35s - loss: 2.4119 - accuracy: 0.7881 - precision: 0.7681 - recall: 0.8510 - auc: 0.8583 - val_loss: 1.6242 - val_accuracy: 0.6002 - val_precision: 0.5870 - val_recall: 0.6603 - val_auc: 0.6298 - 35s/epoch - 120ms/step
…
