…
Validation fold: ['p2nodbot' 'p6nodbot' 'p9nodbot' 'p19nodbot' 'p22nodbot']
Test fold: ['p18nodbot' 'p27nodbot' 'p5nodbot']
Train shapes: (18972, 49) (18972,)
Validation shapes: (5653, 49) (5653,)
Test shapes: (3986, 49) (3986,)
Train sequences shape: (17548, 90, 49) (17548,)
X_train_sequences shape: (17548, 90, 49)
X_val_sequences shape: (5208, 90, 49)
X_test_sequences shape: (3719, 90, 49)
Model: "sequential"
_________________________________________________________________
 Layer (type)                Output Shape              Param #
=================================================================
 lstm (LSTM)                 (None, 90, 64)            29184

 dropout (Dropout)           (None, 90, 64)            0

 batch_normalization (Batch  (None, 90, 64)            256
 Normalization)

 lstm_1 (LSTM)               (None, 64)                33024

 dropout_1 (Dropout)         (None, 64)                0

 batch_normalization_1 (Bat  (None, 64)                256
 chNormalization)

 dense (Dense)               (None, 32)                2080

 dense_1 (Dense)             (None, 2)                 66

=================================================================
Total params: 64866 (253.38 KB)
Trainable params: 64610 (252.38 KB)
Non-trainable params: 256 (1.00 KB)
_________________________________________________________________
Epoch 1/500
