…
WARNING:tensorflow:Layer gru_1 will not use cuDNN kernels since it doesn't meet the criteria. It will use a generic GPU kernel as fallback when running on GPU.
WARNING:tensorflow:Layer gru_1 will not use cuDNN kernels since it doesn't meet the criteria. It will use a generic GPU kernel as fallback when running on GPU.
WARNING:tensorflow:Layer gru_1 will not use cuDNN kernels since it doesn't meet the criteria. It will use a generic GPU kernel as fallback when running on GPU.
Model: "sequential"
_________________________________________________________________
 Layer (type)                Output Shape              Param #
=================================================================
 bidirectional (Bidirection  (None, 90, 512)           471552
 al)

 dropout (Dropout)           (None, 90, 512)           0

 batch_normalization (Batch  (None, 90, 512)           2048
 Normalization)

 bidirectional_1 (Bidirecti  (None, 512)               1182720
 onal)

 dropout_1 (Dropout)         (None, 512)               0

 batch_normalization_1 (Bat  (None, 512)               2048
 chNormalization)

 dense (Dense)               (None, 32)                16416

 dense_1 (Dense)             (None, 2)                 66

=================================================================
Total params: 1674850 (6.39 MB)
Trainable params: 1672802 (6.38 MB)
Non-trainable params: 2048 (8.00 KB)
_________________________________________________________________
Epoch 1/500
