…
Validation fold: ['p2nodbot' 'p6nodbot' 'p9nodbot' 'p19nodbot' 'p22nodbot']
Test fold: ['p18nodbot' 'p27nodbot' 'p5nodbot']
Train shapes: (18972, 49) (18972,)
Validation shapes: (5653, 49) (5653,)
Test shapes: (3986, 49) (3986,)
Train sequences shape: (18508, 30, 49) (18508,)
X_train_sequences shape: (18508, 30, 49)
X_val_sequences shape: (5508, 30, 49)
X_test_sequences shape: (3899, 30, 49)
Model: "sequential"
_________________________________________________________________
 Layer (type)                Output Shape              Param #
=================================================================
 bidirectional (Bidirection  (None, 128)               58368
 al)

 dropout (Dropout)           (None, 128)               0

 batch_normalization (Batch  (None, 128)               512
 Normalization)

 dense (Dense)               (None, 64)                8256

 dense_1 (Dense)             (None, 1)                 65

=================================================================
Total params: 67201 (262.50 KB)
Trainable params: 66945 (261.50 KB)
Non-trainable params: 256 (1.00 KB)
_________________________________________________________________
Epoch 1/500
579/579 - 8s - loss: 18.1191 - accuracy: 0.5459 - precision: 0.5678 - recall: 0.5440 - auc: 0.5594 - val_loss: 18.0033 - val_accuracy: 0.5403 - val_precision: 0.5271 - val_recall: 0.7327 - val_auc: 0.6003 - 8s/epoch - 13ms/step
…
