…
X_test_sequences shape: (3809, 60, 22)
WARNING:tensorflow:Layer gru will not use cuDNN kernels since it doesn't meet the criteria. It will use a generic GPU kernel as fallback when running on GPU.
WARNING:tensorflow:Layer gru_1 will not use cuDNN kernels since it doesn't meet the criteria. It will use a generic GPU kernel as fallback when running on GPU.
Model: "sequential"
_________________________________________________________________
 Layer (type)                Output Shape              Param #
=================================================================
 gru (GRU)                   (None, 60, 128)           58368

 dropout (Dropout)           (None, 60, 128)           0

 batch_normalization (Batch  (None, 60, 128)           512
 Normalization)

 gru_1 (GRU)                 (None, 128)               99072

 dropout_1 (Dropout)         (None, 128)               0

 batch_normalization_1 (Bat  (None, 128)               512
 chNormalization)

 dense (Dense)               (None, 64)                8256

 dense_1 (Dense)             (None, 2)                 130

=================================================================
Total params: 166850 (651.76 KB)
Trainable params: 166338 (649.76 KB)
Non-trainable params: 512 (2.00 KB)
_________________________________________________________________
Epoch 1/500
141/141 - 60s - loss: 0.7248 - accuracy: 0.5128 - precision: 0.5128 - recall: 0.5128 - auc: 0.5163 - val_loss: 0.6938 - val_accuracy: 0.4892 - val_precision: 0.4892 - val_recall: 0.4892 - val_auc: 0.5250 - 60s/epoch - 423ms/step
…
