…
WARNING:tensorflow:Layer gru will not use cuDNN kernels since it doesn't meet the criteria. It will use a generic GPU kernel as fallback when running on GPU.
WARNING:tensorflow:Layer gru_1 will not use cuDNN kernels since it doesn't meet the criteria. It will use a generic GPU kernel as fallback when running on GPU.
WARNING:tensorflow:Layer gru_2 will not use cuDNN kernels since it doesn't meet the criteria. It will use a generic GPU kernel as fallback when running on GPU.
Model: "sequential"
_________________________________________________________________
 Layer (type)                Output Shape              Param #
=================================================================
 gru (GRU)                   (None, 90, 256)           235776

 dropout (Dropout)           (None, 90, 256)           0

 batch_normalization (Batch  (None, 90, 256)           1024
 Normalization)

 gru_1 (GRU)                 (None, 90, 256)           394752

 dropout_1 (Dropout)         (None, 90, 256)           0

 batch_normalization_1 (Bat  (None, 90, 256)           1024
 chNormalization)

 gru_2 (GRU)                 (None, 256)               394752

 dropout_2 (Dropout)         (None, 256)               0

 batch_normalization_2 (Bat  (None, 256)               1024
 chNormalization)

 dense (Dense)               (None, 32)                8224

 dense_1 (Dense)             (None, 2)                 66

=================================================================
Total params: 1036642 (3.95 MB)
Trainable params: 1035106 (3.95 MB)
Non-trainable params: 1536 (6.00 KB)
_________________________________________________________________
Epoch 1/500
