…
Validation fold: ['p2nodbot' 'p6nodbot' 'p9nodbot' 'p19nodbot' 'p22nodbot']
Test fold: ['p18nodbot' 'p27nodbot' 'p5nodbot']
Train shapes: (18972, 24) (18972,)
Validation shapes: (5653, 24) (5653,)
Test shapes: (3986, 24) (3986,)
Train sequences shape: (18028, 60, 24) (18028,)
X_train_sequences shape: (18028, 60, 24)
X_val_sequences shape: (5358, 60, 24)
X_test_sequences shape: (3809, 60, 24)
Model: "sequential"
_________________________________________________________________
 Layer (type)                Output Shape              Param #
=================================================================
 bidirectional (Bidirection  (None, 60, 512)           433152
 al)

 dropout (Dropout)           (None, 60, 512)           0

 batch_normalization (Batch  (None, 60, 512)           2048
 Normalization)

 bidirectional_1 (Bidirecti  (None, 60, 512)           1182720
 onal)

 dropout_1 (Dropout)         (None, 60, 512)           0

 batch_normalization_1 (Bat  (None, 60, 512)           2048
 chNormalization)

 bidirectional_2 (Bidirecti  (None, 512)               1182720
 onal)

 dropout_2 (Dropout)         (None, 512)               0

 batch_normalization_2 (Bat  (None, 512)               2048
 chNormalization)

 dense (Dense)               (None, 64)                32832

 dense_1 (Dense)             (None, 1)                 65

=================================================================
Total params: 2837633 (10.82 MB)
Trainable params: 2834561 (10.81 MB)
Non-trainable params: 3072 (12.00 KB)
_________________________________________________________________
Epoch 1/500
282/282 - 18s - loss: 28.1122 - accuracy: 0.7132 - precision: 0.7190 - recall: 0.7629 - auc: 0.7730 - val_loss: 2.6700 - val_accuracy: 0.5760 - val_precision: 0.5474 - val_recall: 0.9825 - val_auc: 0.7077 - 18s/epoch - 63ms/step
…
