…
Validation fold: ['p2nodbot' 'p6nodbot' 'p9nodbot' 'p19nodbot' 'p22nodbot']
Test fold: ['p18nodbot' 'p27nodbot' 'p5nodbot']
Train shapes: (18972, 59) (18972,)
Validation shapes: (5653, 59) (5653,)
Test shapes: (3986, 59) (3986,)
Train sequences shape: (18028, 60, 59) (18028,)
X_train_sequences shape: (18028, 60, 59)
X_val_sequences shape: (5358, 60, 59)
X_test_sequences shape: (3809, 60, 59)
Model output classes: 2
Model: "sequential"
_________________________________________________________________
 Layer (type)                Output Shape              Param #
=================================================================
 gru (GRU)                   (None, 256)               243456

 dropout (Dropout)           (None, 256)               0

 batch_normalization (Batch  (None, 256)               1024
 Normalization)

 dense (Dense)               (None, 32)                8224

 dense_1 (Dense)             (None, 2)                 66

=================================================================
Total params: 252770 (987.38 KB)
Trainable params: 252258 (985.38 KB)
Non-trainable params: 512 (2.00 KB)
_________________________________________________________________
Epoch 1/500
