…
Validation fold: ['p2nodbot' 'p6nodbot' 'p9nodbot' 'p19nodbot' 'p22nodbot']
Test fold: ['p18nodbot' 'p27nodbot' 'p5nodbot']
Train shapes: (18972, 24) (18972,)
Validation shapes: (5653, 24) (5653,)
Test shapes: (3986, 24) (3986,)
Train sequences shape: (18028, 60, 24) (18028,)
X_train_sequences shape: (18028, 60, 24)
X_val_sequences shape: (5358, 60, 24)
X_test_sequences shape: (3809, 60, 24)
Model: "sequential"
_________________________________________________________________
 Layer (type)                Output Shape              Param #
=================================================================
 gru (GRU)                   (None, 128)               59136

 dropout (Dropout)           (None, 128)               0

 batch_normalization (Batch  (None, 128)               512
 Normalization)

 dense (Dense)               (None, 32)                4128

 dense_1 (Dense)             (None, 2)                 66

=================================================================
Total params: 63842 (249.38 KB)
Trainable params: 63586 (248.38 KB)
Non-trainable params: 256 (1.00 KB)
_________________________________________________________________
Epoch 1/500
