…
WARNING:tensorflow:Layer gru_2 will not use cuDNN kernels since it doesn't meet the criteria. It will use a generic GPU kernel as fallback when running on GPU.
WARNING:tensorflow:Layer gru_2 will not use cuDNN kernels since it doesn't meet the criteria. It will use a generic GPU kernel as fallback when running on GPU.
WARNING:tensorflow:Layer gru_2 will not use cuDNN kernels since it doesn't meet the criteria. It will use a generic GPU kernel as fallback when running on GPU.
Model: "sequential"
_________________________________________________________________
 Layer (type)                Output Shape              Param #
=================================================================
 bidirectional (Bidirection  (None, 90, 256)           118272
 al)

 dropout (Dropout)           (None, 90, 256)           0

 batch_normalization (Batch  (None, 90, 256)           1024
 Normalization)

 bidirectional_1 (Bidirecti  (None, 90, 256)           296448
 onal)

 dropout_1 (Dropout)         (None, 90, 256)           0

 batch_normalization_1 (Bat  (None, 90, 256)           1024
 chNormalization)

 bidirectional_2 (Bidirecti  (None, 256)               296448
 onal)

 dropout_2 (Dropout)         (None, 256)               0

 batch_normalization_2 (Bat  (None, 256)               1024
 chNormalization)

 dense (Dense)               (None, 64)                16448

 dense_1 (Dense)             (None, 2)                 130

=================================================================
Total params: 730818 (2.79 MB)
Trainable params: 729282 (2.78 MB)
Non-trainable params: 1536 (6.00 KB)
_________________________________________________________________
Epoch 1/500
275/275 - 181s - loss: 5.8549 - accuracy: 0.7619 - precision: 0.7619 - recall: 0.7619 - auc: 0.8294 - val_loss: 4.3505 - val_accuracy: 0.4743 - val_precision: 0.4743 - val_recall: 0.4743 - val_auc: 0.6124 - 181s/epoch - 659ms/step
…
