…
Validation shapes: (5653, 24) (5653,)
Test shapes: (3986, 24) (3986,)
Train sequences shape: (18028, 60, 24) (18028,)
X_train_sequences shape: (18028, 60, 24)
X_val_sequences shape: (5358, 60, 24)
X_test_sequences shape: (3809, 60, 24)
Num classes:  6
Unique labels in y_train: [0 1 2 3 4 5]
Unique labels in y_val: [0 1 2 3]
Unique labels in y_test: [0 1 2 3]
Model: "sequential"
_________________________________________________________________
 Layer (type)                Output Shape              Param #
=================================================================
 gru (GRU)                   (None, 60, 64)            17280

 dropout (Dropout)           (None, 60, 64)            0

 batch_normalization (Batch  (None, 60, 64)            256
 Normalization)

 gru_1 (GRU)                 (None, 60, 64)            24960

 dropout_1 (Dropout)         (None, 60, 64)            0

 batch_normalization_1 (Bat  (None, 60, 64)            256
 chNormalization)

 gru_2 (GRU)                 (None, 64)                24960

 dropout_2 (Dropout)         (None, 64)                0

 batch_normalization_2 (Bat  (None, 64)                256
 chNormalization)

 dense (Dense)               (None, 32)                2080

 dense_1 (Dense)             (None, 6)                 198

=================================================================
Total params: 70246 (274.40 KB)
Trainable params: 69862 (272.90 KB)
Non-trainable params: 384 (1.50 KB)
_________________________________________________________________
Epoch 1/500
564/564 - 58s - loss: 10.3815 - accuracy: 0.4509 - precision: 0.4741 - recall: 0.1039 - auc: 0.7724 - val_loss: 6.6403 - val_accuracy: 0.4890 - val_precision: 0.0000e+00 - val_recall: 0.0000e+00 - val_auc: 0.8047 - 58s/epoch - 102ms/step
…
