…
WARNING:tensorflow:Layer lstm will not use cuDNN kernels since it doesn't meet the criteria. It will use a generic GPU kernel as fallback when running on GPU.
WARNING:tensorflow:Layer lstm_1 will not use cuDNN kernels since it doesn't meet the criteria. It will use a generic GPU kernel as fallback when running on GPU.
WARNING:tensorflow:Layer lstm_2 will not use cuDNN kernels since it doesn't meet the criteria. It will use a generic GPU kernel as fallback when running on GPU.
Model: "sequential"
_________________________________________________________________
 Layer (type)                Output Shape              Param #
=================================================================
 lstm (LSTM)                 (None, 90, 128)           75776

 dropout (Dropout)           (None, 90, 128)           0

 batch_normalization (Batch  (None, 90, 128)           512
 Normalization)

 lstm_1 (LSTM)               (None, 90, 128)           131584

 dropout_1 (Dropout)         (None, 90, 128)           0

 batch_normalization_1 (Bat  (None, 90, 128)           512
 chNormalization)

 lstm_2 (LSTM)               (None, 128)               131584

 dropout_2 (Dropout)         (None, 128)               0

 batch_normalization_2 (Bat  (None, 128)               512
 chNormalization)

 dense (Dense)               (None, 32)                4128

 dense_1 (Dense)             (None, 2)                 66

=================================================================
Total params: 344674 (1.31 MB)
Trainable params: 343906 (1.31 MB)
Non-trainable params: 768 (3.00 KB)
_________________________________________________________________
Epoch 1/500
275/275 - 85s - loss: 3.1583 - accuracy: 0.5540 - precision: 0.5540 - recall: 0.5540 - auc: 0.5770 - val_loss: 3.1380 - val_accuracy: 0.5253 - val_precision: 0.5253 - val_recall: 0.5253 - val_auc: 0.5251 - 85s/epoch - 309ms/step
…
