…
WARNING:tensorflow:Layer lstm_1 will not use cuDNN kernels since it doesn't meet the criteria. It will use a generic GPU kernel as fallback when running on GPU.
WARNING:tensorflow:Layer lstm_1 will not use cuDNN kernels since it doesn't meet the criteria. It will use a generic GPU kernel as fallback when running on GPU.
WARNING:tensorflow:Layer lstm_1 will not use cuDNN kernels since it doesn't meet the criteria. It will use a generic GPU kernel as fallback when running on GPU.
Model: "sequential"
_________________________________________________________________
 Layer (type)                Output Shape              Param #
=================================================================
 bidirectional (Bidirection  (None, 30, 512)           626688
 al)

 dropout (Dropout)           (None, 30, 512)           0

 batch_normalization (Batch  (None, 30, 512)           2048
 Normalization)

 bidirectional_1 (Bidirecti  (None, 512)               1574912
 onal)

 dropout_1 (Dropout)         (None, 512)               0

 batch_normalization_1 (Bat  (None, 512)               2048
 chNormalization)

 dense (Dense)               (None, 128)               65664

 dense_1 (Dense)             (None, 2)                 258

=================================================================
Total params: 2271618 (8.67 MB)
Trainable params: 2269570 (8.66 MB)
Non-trainable params: 2048 (8.00 KB)
_________________________________________________________________
Epoch 1/500
145/145 - 18s - loss: 22.5587 - accuracy: 0.7231 - precision: 0.7231 - recall: 0.7231 - auc: 0.7940 - val_loss: 17.3518 - val_accuracy: 0.6002 - val_precision: 0.6002 - val_recall: 0.6002 - val_auc: 0.6450 - 18s/epoch - 125ms/step
…
