…
Validation shapes: (5653, 24) (5653,)
Test shapes: (3986, 24) (3986,)
Train sequences shape: (18508, 30, 24) (18508,)
X_train_sequences shape: (18508, 30, 24)
X_val_sequences shape: (5508, 30, 24)
X_test_sequences shape: (3899, 30, 24)
Num classes:  2
Unique labels in y_train: [0 1 2 3 4 5]
Unique labels in y_val: [0 1 2 3]
Unique labels in y_test: [0 1 2 3]
Model output classes: 2
Model: "sequential"
_________________________________________________________________
 Layer (type)                Output Shape              Param #
=================================================================
 bidirectional (Bidirection  (None, 30, 512)           433152
 al)

 dropout (Dropout)           (None, 30, 512)           0

 batch_normalization (Batch  (None, 30, 512)           2048
 Normalization)

 bidirectional_1 (Bidirecti  (None, 30, 512)           1182720
 onal)

 dropout_1 (Dropout)         (None, 30, 512)           0

 batch_normalization_1 (Bat  (None, 30, 512)           2048
 chNormalization)

 bidirectional_2 (Bidirecti  (None, 512)               1182720
 onal)

 dropout_2 (Dropout)         (None, 512)               0

 batch_normalization_2 (Bat  (None, 512)               2048
 chNormalization)

 dense (Dense)               (None, 64)                32832

 dense_1 (Dense)             (None, 2)                 130

=================================================================
Total params: 2837698 (10.82 MB)
Trainable params: 2834626 (10.81 MB)
Non-trainable params: 3072 (12.00 KB)
_________________________________________________________________
Epoch 1/500
