…
WARNING:tensorflow:Layer gru_3 will not use cuDNN kernels since it doesn't meet the criteria. It will use a generic GPU kernel as fallback when running on GPU.
Model: "model"
__________________________________________________________________________________________________
 Layer (type)                Output Shape                 Param #   Connected to
==================================================================================================
 input_1 (InputLayer)        [(None, 90, 24)]             0         []

 input_2 (InputLayer)        [(None, 90, 35)]             0         []

 input_3 (InputLayer)        [(None, 90, 25)]             0         []

 gru (GRU)                   (None, 90, 256)              216576    ['input_1[0][0]']

 gru_1 (GRU)                 (None, 90, 256)              225024    ['input_2[0][0]']

 gru_2 (GRU)                 (None, 90, 256)              217344    ['input_3[0][0]']

 dropout (Dropout)           (None, 90, 256)              0         ['gru[0][0]']

 dropout_1 (Dropout)         (None, 90, 256)              0         ['gru_1[0][0]']

 dropout_2 (Dropout)         (None, 90, 256)              0         ['gru_2[0][0]']

 batch_normalization (Batch  (None, 90, 256)              1024      ['dropout[0][0]']
 Normalization)

 batch_normalization_1 (Bat  (None, 90, 256)              1024      ['dropout_1[0][0]']
 chNormalization)

 batch_normalization_2 (Bat  (None, 90, 256)              1024      ['dropout_2[0][0]']
 chNormalization)

 concatenate (Concatenate)   (None, 90, 768)              0         ['batch_normalization[0][0]',
                                                                     'batch_normalization_1[0][0]'
                                                                    , 'batch_normalization_2[0][0]
                                                                    ']

 gru_3 (GRU)                 (None, 256)                  787968    ['concatenate[0][0]']

 dropout_3 (Dropout)         (None, 256)                  0         ['gru_3[0][0]']

 batch_normalization_3 (Bat  (None, 256)                  1024      ['dropout_3[0][0]']
 chNormalization)

 dense (Dense)               (None, 32)                   8224      ['batch_normalization_3[0][0]'
                                                                    ]

 dense_1 (Dense)             (None, 2)                    66        ['dense[0][0]']

==================================================================================================
Total params: 1459298 (5.57 MB)
Trainable params: 1457250 (5.56 MB)
Non-trainable params: 2048 (8.00 KB)
__________________________________________________________________________________________________
Epoch 1/500
